results/trained_models/CustomCNN.pth (torch, 364253 bytes, 12 tensors)

weight f4 [16, 4, 3, 3]
-0.21696126 0.15560013 0.043847334 -0.2545899 -0.0003141999 -0.22667037 -0.089369126 0.20476219
0.18167001 0.02436033 0.24396166 0.06589008 -0.07278571 0.04913512 0.033101927 -0.013953923
-0.16215113 0.016087953 -0.07375966 -0.25493348 -0.11221716 -0.02802374 -0.20760024 -0.019082818
0.109487556 -0.19032246 0.10875119 0.08383055 0.12838377 -0.13518848 -0.097490326 0.027623536
-0.08165672 0.14365336 0.1379425 0.13776782 -0.024559852 0.09451046 0.16259153 -0.08216144
0.007946517 -0.06027435 -0.19569093 -0.2101144 -0.10478474 0.13637462 0.19692583 0.13745345
-0.052347157 -0.023692034 -0.14067422 0.1444952 0.1902589 0.023603499 -0.1735615 0.06413332
0.090681314 0.18545689 0.10973584 0.06582044 0.117070265 0.041065156 0.09666375 0.16129936
-0.14593351 -0.11690579 -0.16716355 -0.030861959 0.0049608503 0.02679362 -0.022522341 -0.0717942
-0.30247474 -0.35641563 -0.23716323 -0.24592695 0.018458718 -0.11357743 0.052357003 0.1943007
0.2133459 0.076953255 -0.008319106 -0.28177446 0.0796886 0.06841604 -0.14195232 -0.004762993
-0.17021933 -0.15307783 0.20082863 0.03856974 0.16755234 -0.017804196 0.21659736 -0.09169758
0.16251941 -0.034090947 0.11610993 0.003041899 0.0007409889 -0.10001204 -0.08520986 0.10971743
0.16521442 -0.055269014 -0.091255166 0.15903994 0.27842006 0.20535249 0.3099851 0.06132144
0.06074384 0.24644388 -0.0755518 0.13269511 0.14229861 -0.16119929 -0.12151338 0.022220468
0.082516134 -0.12791443 -0.07641535 -0.08282656 0.09038666 -0.0129295355 -0.04477484 -0.008020496
-0.20452657 -0.055060662 0.004993913 -0.12671648 -0.18593921 0.13379288 -0.11840837 0.128236
0.14004305 0.10256208 -0.0034364488 0.059079554 -0.10672779 -0.17359836 0.09497038 0.1433994
-0.09282099 0.019392654 -0.13206252 0.11412643 -0.11828525 -0.12504534 0.093018785 -0.0697862
0.15868276 0.03421326 -0.12245198 -0.08048751 -0.020433843 -0.1167139 -0.0024018039 0.04152809
-0.03401593 -0.122070946 -0.12678939 0.05874075 -0.1080093 -0.038782 -0.018021025 0.02265223
0.1135474 -0.061303932 -0.04796335 0.015887544 -0.07348498 0.08835997 -0.16247414 0.0033423887
-0.032806933 -0.035249338 0.15781522 0.055877153 -0.011600618 0.21534525 0.07868832 0.012514326
0.2612461 0.032118578 -0.082104646 0.22318481 0.036112845 -0.19240427 0.085651495 0.032365452
0.072701916 0.39546472 0.16598746 -0.03596308 0.015517564 0.12250344 0.08723951 -0.12836
-0.11662186 -0.15019524 -0.3304366 -0.010219572 -0.14012524 -0.12886095 0.0594141 -0.114480175
-0.028780922 0.11591806 -0.17596842 0.03922431 0.09598401 -0.05042394 0.1182076 0.042102724
-0.27981284 0.14700408 -0.18475582 0.1635796 0.09081613 0.10822369 -0.12873137 -0.12264524
-0.1192487 -0.0019922068 0.024785291 0.00028981833 0.053973816 0.28528032 0.16430612 0.13462311
0.2119294 0.23877595 0.21042404 0.017105933 -0.037562326 0.11801722 -0.06310334 0.02553005
-0.065864384 0.017308375 -0.05255215 -0.14572047 -0.03098736 -0.0373403 -0.1009937 -0.12554592
-0.00764741 -0.09219162 0.14435053 -0.07849514 0.1890483 -0.18564254 0.04267331 0.36909705
00000000: 182b 5ebe a455 1f3e 4399 333d 9b59 82be
00000010: 32bb a4b9 471c 68be 2907 b7bd 2ead 513e
00000020: b407 3a3e 518f c73c 16d1 793e 61f1 863d
00000030: ad10 95bd e841 493d e395 073d ff9e 64bc
00000040: f20a 26be e2ca 833c 4e0f 97bd a486 82be
00000050: 1cd2 e5bd 0b92 e5bc 2895 54be 9253 9cbc
00000060: 033b e03d e4e3 42be f2b8 de3d 5aaf ab3d
00000070: 0977 033e d96e 0abe 02a9 c7bd c14a e23c
00000080: a33b a7bd de19 133e cc40 0d3e 0213 0d3e
00000090: be31 c9bc b38e c13d 657e 263e 4244 a8bd
000000a0: 1c32 023c 3de2 76bd 3463 48be 3b28 57be
000000b0: 6299 d6bd caa5 0b3e eda6 493e 99c0 0c3e
000000c0: f969 56bd cc15 c2bc e70c 10be 8df6 133e
000000d0: 3bd3 423e 205c c13c 1bba 31be 5458 833d
000000e0: 20b7 b93d 69e8 3d3e 2fbd e03d decc 863d
000000f0: 89c2 ef3d f033 283d a5f7 c53d a92b 253e
00000100: 986f 15be 4e6c efbd ec2c 2bbe 38d2 fcbc
00000110: a18e a23b 4b7e db3c c680 b8bc d608 93bd
00000120: f8dd 9abe 1c7c b6be ebda 72be 46d4 7bbe
00000130: bd36 973c 499b e8bd 4c74 563d c3f6 463e
00000140: 5977 5a3e ab99 9d3d dc4c 08bc be44 90be
00000150: c733 a33d b51d 8c3d f35b 11be e212 9cbb
00000160: fa4d 2ebe 6fc0 1cbe 05a6 4d3e 4efb 1d3d
00000170: d792 2b3e 1bda 91bc b3cb 5d3e f1cb bbbd
00000180: 7d6b 263e f3a2 0bbd 0bcb ed3d 995a 473b
00000190: ec3e 423a 1dd3 ccbd 8282 aebd 88b3 e03d
000001a0: f82d 293e c361 62bd fde3 babd 5edb 223e
000001b0: 138d 8e3e ec47 523e 5eb6 9e3e 312c 7b3d
000001c0: 88ce 783d c95b 7c3e e7ba 9abd 3ae1 073e
000001d0: bab6 113e 6d11 25be 02dc f8bd b307 b63c
000001e0: 38fe a83d 00fc 02be a77f 9cbd f9a0 a9bd
000001f0: a41c b93d 67d6 53bc d365 37bd 6668 03bc
00000200: 6a6f 51be 4a87 61bd fba3 a33b f7c1 01be
00000210: d966 3ebe 0001 093e 1680 f2bd 4c50 033e
00000220: 7267 0f3e 110c d23d 0b36 61bb 67fd 713d
00000230: 1994 dabd c5c3 31be d57f c23d 4bd7 123e
00000240: ee18 bebd 58dd 9e3c 663b 07be 1ebb e93d
00000250: 8a3f f2bd e30b 00be a280 be3d 11ec 8ebd
00000260: bc7d 223e 3423 0c3d 1bc8 fabd a3d6 a4bd
00000270: e064 a7bc b207 efbd 9567 1dbb 5c19 2a3d
00000280: 4a54 0bbd 5500 fabd 14d5 01be 249a 703d
00000290: fb33 ddbd e0d9 1ebd d4a0 93bc 2b91 b93c
000002a0: 8a8b e83d d519 7bbd 3875 44bd 9826 823c
000002b0: 4b7f 96bd 12f6 b43d 9f5f 26be fa0b 5b3b
000002c0: 9060 06bd 9c61 10bd 509a 213e 71df 643d
000002d0: 8510 3ebc 7783 5c3e 5827 a13d e308 4d3c
000002e0: 0cc2 853e c58e 033d 7b26 a8bd 8f8a 643e
000002f0: 10eb 133d a005 45be 0d6a af3d a391 043d
00000300: bee4 943d 5a7a ca3e 9ef8 293e 064e 13bd
00000310: 613d 7e3c 15e3 fa3d a1aa b23d ce70 03be
00000320: 71d7 eebd c8cc 19be fc2e a9be fe6f 27bc
00000330: fe7c 0fbe 20f4 03be 335c 733d 9574 eabd
00000340: f8c5 ebbc 7366 ed3d 1131 34be aca9 203d
00000350: 4493 c43d 5589 4ebd d416 f23d e873 2c3d
00000360: a143 8fbe 3d88 163e a130 3dbe 6981 273e
00000370: cffd b93d 62a4 dd3d 28d2 03be 6d2d fbbd
00000380: aa38 f4bd af8f 02bb 860a cb3c c2f2 9739
00000390: a613 5d3d 4310 923e dd3f 283e a4da 093e
000003a0: 0504 593e af81 743e 6679 573e be21 8c3c
000003b0: f4da 19bd 03b3 f13d 533c 81bd 6524 d13c
000003c0: e8e3 86bd 4bca 8d3c ec40 57bd bf37 15be
000003d0: 34d9 fdbc 24f2 18bd c9d5 cebd 1c8f 00be
000003e0: 2097 fabb f6ce bcbd a0d0 133e 0fc2 a0bd
000003f0: e195 413e 1419 3ebe 35ca 2e3d 4afa bc3e

bias f4 [16]
-0.022030275 0.0058255624 0.042595174 -0.14713486 -0.10142487 -0.006346812 0.009206191 0.094929256
-0.084707096 -0.07306937 -0.075872906 -0.11120197 -0.15478303 0.089364186 -0.0879469 -0.17300001
00000000: d678 b4bc 5ce4 be3b 4778 2e3d 85aa 16be
00000010: d8b7 cfbd ebf8 cfbb 90d5 163c 456a c23d
00000020: ea7a adbd 65a5 95bd 4163 9bbd dcbd e3bd
00000030: 717f 1ebe 9204 b73d 811d b4bd ea26 31be

weight f4 [32, 16, 3, 3]
-0.1130469 -0.031735815 0.08161996 0.0037761712 0.27641267 0.2785366 -0.2294501 0.008395567
0.013006344 -0.09464026 -0.039504804 -0.037388373 0.037842095 0.001703534 -0.13705686 -0.14180721
-0.0500635 0.06339168 0.026779754 -0.0034041153 0.016617322 0.070349775 -0.024887903 -0.011870981
0.07141068 -0.013645505 0.06687963 0.14618804 -0.13427764 0.053211603 0.12425787 -0.08494181
0.20582668 0.08087171 -0.073575154 0.12294485 -0.06993449 -0.04697494 0.02656705 -0.036891025
0.004081376 0.0027973056 -0.052569717 0.061603107 0.010403752 0.017199509 0.066708684 0.044753995
-0.019294783 0.024992973 0.07950881 -0.0405175 -0.047328822 -0.012845879 0.012270184 0.079410575
-0.002503688 0.051140383 -0.003121424 0.12745522 -0.03066797 -0.060683373 -0.070540905 -0.03806747
-0.047671564 -0.008471038 -0.07315501 -0.13842502 -0.027110903 0.025669388 0.1080225 -0.008219629
0.028448641 -0.0019388043 0.112761974 0.008271483 0.03291312 0.019854248 -0.034034684 0.019899908
0.07374585 0.013517406 -0.035785258 -0.088971674 0.020284388 0.28846407 0.21463223 -0.18591142
-0.012501573 -0.013331721 -0.0803663 0.050519343 -0.04599347 0.14905958 0.1832231 -0.016546344
-0.056173865 -0.023526274 -0.088781655 0.06873207 0.04329147 0.10641726 -0.0682117 -0.09180331
-0.010748936 0.06573995 -0.0763728 -0.02053659 0.008925688 0.00069968816 -0.03365816 0.044694915
0.10381174 0.0736197 -0.20127 -0.092054136 -0.02897358 0.05883616 -0.0009964494 0.04976248
0.015728083 -0.016048154 0.056908093 -0.066274084 -0.008044644 0.0024873351 -0.12178952 -0.14616135
-0.14656487 0.01596612 -0.028142713 0.15188737 -0.12347834 -0.11556536 0.020710442 -0.06697166
-0.05137079 -0.08228816 0.101434164 0.08983475 0.177018 -0.1769915 -0.04099062 -0.048155483
0.12736125 0.25300768 0.1784057 0.118086174 0.021033473 0.09431519 0.092371084 0.121331185
0.08136719 -0.07414364 -0.11623212 -0.023361556 -0.13136975 -0.08505356 0.037913237 -0.23481604
-0.20405564 -0.048506174 -0.10429496 -0.09749152 -0.060903497 -0.05781024 -0.028519176 -0.024290677
-0.22357593 -0.017237289 0.050988954 0.18398984 0.15043426 0.20786622 -0.023032628 -0.07350288
-0.05999959 0.15134671 0.1132216 -0.13115178 -0.015852785 -0.0729392 -0.020146139 -0.040556055
-0.03472846 0.060406707 -0.0034164265 0.07441678 -0.06941926 0.08279005 -0.036363866 0.020422185
0.07789769 -0.06009736 0.019931102 0.059465054 0.071568035 -0.1582572 0.03194601 -0.013399784
-0.07808056 -0.0954835 -0.046252463 -0.022749282 -0.04432914 -0.07966793 -0.05523584 0.103405096
0.10091595 0.0030548002 0.038448486 -0.060928572 -0.12513392 0.0629633 0.084645 0.020551907
-0.08233563 -0.1013395 -0.027516268 -0.052076984 -0.028613558 -0.079721 0.060840048 0.084528565
0.008180943 0.0733177 0.0803594 0.03507414 0.14176956 0.028871877 -0.15621588 0.2409729
0.23247543 -0.063670285 0.015891159 -0.14508694 -0.1020502 -0.17977747 -0.07233181 -0.09397134
-0.08194431 -0.1272051 -0.08037159 -0.075358905 -0.049858257 0.037010312 -0.067655474 -0.022452326
-0.01719479 -0.12029542 -0.055615406 -0.0026222516 0.01529081 0.028674033 0.017330075 0.03788537
00000000: 2285 e7bd 6afd 01bd 5e28 a73d a479 773b
00000010: f685 8d3e 599c 8e3e f8f4 6abe 8f8d 093c
00000020: 9018 553c c1d2 c1bd cacf 21bd 8d24 19bd
00000030: 5000 1b3d 1e49 df3a a258 0cbe e935 11be
00000040: 620f 4dbd 7fd3 813d 3761 db3c 9417 5fbb
00000050: 0d21 883c 8b13 903d b7e1 cbbc 817e 42bc
00000060: c33f 923d 6591 5fbc 30f8 883d 51b2 153e
00000070: 1480 09be 69f4 593d e97a fe3d f9f5 adbd
00000080: 3bc4 523e 11a0 a53d 92ae 96bd 82ca fb3d
00000090: d039 8fbd cb68 40bd 24a3 d93c 0b1b 17bd
000000a0: 10bd 853b 0053 373b 5853 57bd 8a53 7c3d
000000b0: 8074 2a3c fce5 8c3c 909e 883d f74f 373d
000000c0: 1810 9ebc 10be cc3c 84d5 a23d aef5 25bd
000000d0: dedb 41bd 8677 52bc e208 493c 03a2 a23d
000000e0: ea14 24bb 9478 513d ce90 4cbb 9f83 023e
000000f0: 653b fbbc 218f 78bd c077 90bd a3ec 1bbd
00000100: 4243 43bd 1cca 0abc 4bd2 95bd 4abf 0dbe
00000110: af17 debc 9c48 d23c e73a dd3d 9fab 06bc
00000120: 200d e93c 7a1f feba c0ef e63d 1d85 073c
00000130: e8cf 063d 60a5 a23c f467 0bbd 2205 a33c
00000140: 1008 973d 1c78 5d3c 9093 12bd c836 b6bd
00000150: 722b a63c 90b1 933e 8dc8 5b3e 905f 3ebe
00000160: 66d3 4cbc 4a6d 5abc 1697 a4bd 5fed 4e3d
00000170: a663 3cbd 13a3 183e d69e 3b3e 338c 87bc
00000180: 9116 66bd 2cba c0bc 28d3 b5bd 66c3 8c3d
00000190: 6552 313d 4bf1 d93d 93b2 8bbd 6003 bcbd
000001a0: 4e1c 30bc aba2 863d 5869 9cbd 5a3c a8bc
000001b0: 0d3d 123c 476b 373a 24dd 09bd 0412 373d
000001c0: 409b d43d edc5 963d b919 4ebe e186 bcbd
000001d0: 005a edbc 2ffe 703d 4b9b 82ba bed3 4b3d
000001e0: 2ed8 803c 6b77 83bc 7618 693d b5ba 87bd
000001f0: afcd 03bc 8f02 233b c96c f9bd 52ab 15be
00000200: 1a15 16be 61cb 823c 8c8b e6bc 5d88 1b3e
00000210: 36e2 fcbd 88ad ecbd f2a8 a93c 7028 89bd
00000220: 2d6a 52bd b286 a8bd b7bc cf3d 48fb b73d
00000230: 3544 353e 433d 35be c8e5 27bd af3e 45bd
00000240: fd6a 023e 398a 813e fcaf 363e 2ad7 f13d
00000250: 644e ac3c 5328 c13d 0d2d bd3d 7c7c f83d
00000260: d7a3 a63d 9fd8 97bd 1b0b eebd bc60 bfbc
00000270: cb85 06be 9030 aebd e94a 1b3d 9e73 70be
00000280: f6f3 50be 69ae 46bd 9998 d5bd a2a9 c7bd
00000290: f275 79bd 6eca 6cbd 0ca1 e9bc 3efd c6bc
000002a0: 17f1 64be 3735 8dbc cbd9 503d d567 3c3e
000002b0: 700b 1a3e e2da 543e ecae bcbc ae88 96bd
000002c0: 21c2 75bd a2fa 1a3e bae0 e73d a74c 06be
000002d0: b3dd 81bc 2661 95bd 8409 a5bc 1b1e 26bd
000002e0: 6e3f 0ebd 066d 773d 20e6 5fbb d367 983d
000002f0: af2b 8ebd d48d a93d 47f2 14bd 6d4c a73c
00000300: d388 9f3d a628 76bd 8d46 a33c a191 733d
00000310: 4392 923d 2d0e 22be d2d9 023d c58a 5bbc
00000320: b3e8 9fbd da8c c3bd 3973 3dbd b45c babc
00000330: 7992 35bd f128 a3bd fa3e 62bd 0dc6 d33d
00000340: 06ad ce3d 0b33 483b 297c 1d3d 3d90 79bd
00000350: 1b23 00be e7f2 803d 5c5a ad3d 795c a83c
00000360: 959f a8bd 158b cfbd cc69 e1bc ad4e 55bd
00000370: fb66 eabc c344 a3bd 6a33 793d 501d ad3d
00000380: 5d09 063c 9727 963d 7893 a43d e7a9 0f3d
00000390: 0a2c 113e b784 ec3c 0ef7 1fbe 9ac1 763e
000003a0: 0a0e 6e3e 9165 82bd 2d2e 823c ac91 14be
000003b0: b2ff d0bd 9617 38be b322 94bd 0c74 c0bd
000003c0: 6bd2 a7bd 0e42 02be dc99 a4bd c555 9abd
000003d0: 2c38 4cbd 2098 173d f48e 8abd f1ed b7bc
000003e0: 17dc 8cbc 725d f6bd fbcc 63bd 15da 2bbb
000003f0: 4e86 7a3c cee5 ea3c cdf7 8d3c b12d 1b3d

bias f4 [32]
-0.008731693 -0.06006762 -0.06609413 -0.026249392 0.072731316 0.07762627 -0.015635204 -0.070500314
0.021003818 -0.0846821 -0.06658763 -0.043174688 -0.08080111 -0.08925534 -0.07820548 0.0187948
-0.032528125 0.07826973 0.06495415 -0.025023565 -0.023704918 0.09416638 -0.0513413 -0.095312834
-0.020802796 0.08641443 0.092004076 -0.0003337259 -0.08129982 -0.06394942 0.0010548194 -0.002596291
00000000: 600f 0fbc 7709 76bd 5c5c 87bd f708 d7bc
00000010: 28f4 943d 86fa 9e3d 6615 80bc 7862 90bd
00000020: 3310 ac3c cf6d adbd 185f 88bd f1d7 30bd
00000030: 0d7b a5bd 81cb b6bd 322a a0bd 8df7 993c
00000040: 363c 05bd e14b a03d ae06 853d 38fe ccbc
00000050: d130 c2bc 4eda c03d 414b 52bd 6033 c3bd
00000060: a06a aabc 0cfa b03d a26c bc3d eff7 aeb9
00000070: 8580 a6bd eaf7 82bd de41 8a3a 8926 2abb

weight f4 [64, 32, 3, 3]
-0.055249058 -0.08798949 -0.09208868 0.057996325 0.118953936 0.07405416 -0.08934457 -0.08886065
0.03358798 -0.04877963 -0.06923641 -0.25141454 -0.021406062 -0.15871952 0.11342879 0.011148552
-0.039186 0.039644357 -0.036300723 -0.025451563 0.0187206 -0.028512307 -0.0041235425 -0.023697045
-0.007186938 -0.0005253665 0.033300575 0.021810036 0.020488458 -0.012833933 -0.09622175 0.029200485
-0.017888555 0.011351963 -0.0156882 0.010054817 0.015446366 -0.0004956461 -0.09100807 0.02945333
0.13460602 0.037303492 -0.068498835 -0.053092808 0.054440435 -0.014139617 -0.11323312 -0.06922127
0.04203052 0.057229448 0.06572957 -0.0344266 -0.060609844 0.019786438 0.052009933 -0.050000463
0.02954751 -0.09488191 0.011390916 0.005748148 -0.08901691 0.032026 0.04612886 -0.11694155
-0.0085658375 -0.050748277 0.058196247 -0.0100411745 -0.04865474 -0.024266839 -0.01618775 -0.03723281
-0.09669939 0.028445454 -0.02459164 0.027193053 0.00859651 0.009963444 -0.06370727 -0.008969917
-0.06607878 0.09237676 0.07364206 0.09988457 -0.07197882 0.00021948089 -0.022078115 0.027886724
0.045673136 0.052229468 -0.011379118 -0.037475124 -0.005751062 -0.031421855 -0.057276852 0.0251753
0.036451187 -0.052282963 -0.033790372 0.06750321 0.03308226 0.01953191 -0.01377417 0.04745404
-0.042556174 -0.00022341308 -0.035720147 -0.00089389976 0.005678085 0.046130437 0.035627894 -0.12449166
-0.09105516 0.050438225 -0.11291762 -0.059484474 -0.059402686 -0.09387833 -0.10651111 -0.21787994
0.06683433 0.062492777 -0.019151459 -0.002127526 -0.003070348 -0.01482623 -0.03157433 -0.05470348
0.05639856 -0.055403523 -0.029487673 0.0067299716 -0.04288692 0.05117747 -0.04904659 0.083212696
0.058653463 -0.016583864 -0.06890858 -0.039499067 0.022192555 -0.07268257 -0.078502655 -0.08112025
0.028534018 0.0031412977 0.056782544 0.0075545004 0.08750501 0.0703784 0.006471244 -0.023687467
-0.0487141 0.069349065 -0.0048862705 0.06606296 0.06821058 0.06344058 0.120555855 -0.07249559
-0.073091954 -0.0048462404 -0.057758603 -0.021636862 -0.05650815 -0.16637753 -0.09623471 -0.17179409
0.033793174 -0.051046252 0.041717704 -0.031884193 0.033897314 0.061257415 -0.026979454 -0.059157893
0.0190897 -0.069962986 -0.0019640636 -0.033938587 -0.015718555 -0.15856281 -0.028315334 0.043135557
-0.0075360048 -0.017649587 -0.030428577 -0.116099946 -0.0072313384 -0.09125924 -0.20758647 -0.031310376
0.072926916 -0.07084073 0.106939636 -0.0040287324 -0.028646879 -0.0027824657 -0.16629519 -0.15147701
-0.15260006 0.039917946 0.0049269563 -0.16353145 -0.04030129 -0.022867495 0.063952036 -0.05782079
-0.029749993 -0.018838715 -0.14393012 0.04606629 0.022424063 -0.02198046 0.059884906 0.0632659
-0.36606273 -0.117483675 -0.16231251 -0.12724063 -0.10335621 -0.08808265 -0.002940128 0.040254153
0.07094382 0.018245513 0.015963648 0.054900035 0.048133098 0.005403987 0.01090942 0.015060021
-0.017604552 -0.028032675 -0.013349309 -0.0495946 -0.058814015 0.005171777 0.08679151 0.07195557
-0.06585903 -0.044148933 -0.060089897 0.08729409 0.111901276 0.10368554 -0.08556896 0.011488161
0.030251352 0.0076396405 -0.0091134235 -0.06484239 -0.05819086 0.044817813 -0.074734606 -0.08546913
00000000: d64c 62bd d533 b4bd fd98 bcbd 8e8d 6d3d
00000010: 1f9e f33d b5a9 973d 49fa b6bd 93fc b5bd
00000020: 8d93 093d 26cd 47bd d2cb 8dbd 68b9 80be
00000030: c45b afbc 5f87 22be 5a4d e83d 6ba8 363c
00000040: 8081 20bd 1f62 223d 11b0 14bd cc7f d0bc
00000050: f25b 993c a492 e9bc c81e 87bb 4e20 c2bc
00000060: 6880 ebbb c0b8 09ba 2f66 083d f6aa b23c
00000070: 69d7 a73c 6b45 52bc e90f c5bd db35 ef3c
00000080: 058b 92bc 95fd 393c 8a84 80bc f6bc 243c
00000090: c112 7d3c 3fee 01ba 7062 babd 1c48 f13c
000000a0: 29d6 093e 8ccb 183d 1e49 8cbd d877 59bd
000000b0: effc 5e3d daa9 67bc c4e6 e7bd e2c3 8dbd
000000c0: 3228 2c3d 6d69 6a3d 3a9d 863d e802 0dbd
000000d0: 0742 78bd 2b17 a23c 5e08 553d 49cd 4cbd
000000e0: 9f0d f23c 7251 c2bd f7a0 3a3c f65a bc3b
000000f0: 7f4e b6bd b22d 033d 9ef1 3c3d 0d7f efbd
00000100: ba57 0cbc 6ddd 4fbd 305f 6e3d bd83 24bc
00000110: 314a 47bd 40cb c6bc 2c9c 84bc 6e81 18bd
00000120: 540a c6bd 7106 e93c 6874 c9bc f7c3 de3c
00000130: 60d8 0c3c b73d 233c f578 82bd 8ff6 12bc
00000140: 5054 87bd 0730 bd3d a6d1 963d 4890 cc3d
00000150: a269 93bd 7424 6639 2add b4bc b372 e43c
00000160: c113 3b3d 91ee 553d 7b6f 3abc 847f 19bd
00000170: 6873 bcbb 34b4 00bd 229b 6abd 6e3c ce3c
00000180: d74d 153d a926 56bd c667 0abd 1f3f 8a3d
00000190: 4481 073d 6201 a03c 0ead 61bc 2b5f 423d
000001a0: 624f 2ebd fe43 6ab9 4a4f 12bd 9954 6aba
000001b0: 3b0f ba3b 45f3 3c3d 8eee 113d 7cf5 febd
000001c0: 217b babd 5098 4e3d 5a41 e7bd fea5 73bd
000001d0: 3b50 73bd 4843 c0bd 7f22 dabd eb1b 5fbe
000001e0: 70e0 883d 6df8 7f3d 85e3 9cbc f76d 0bbb
000001f0: e437 49bb b7e9 72bc 1654 01bd c210 60bd
00000200: 2d02 673d ceee 62bd 2290 f1bc 1887 dc3b
00000210: 32aa 2fbd 779f 513d 14e5 48bd 6b6b aa3d
00000220: 9d3e 703d e2da 87bc f11f 8dbd c6c9 21bd
00000230: 29cd b53c 99da 94bd 00c6 a0bd 6022 a6bd
00000240: 2cc0 e93c 3bde 4d3b d094 683d be8b f73b
00000250: d435 b33d 8d22 903d bb0c d43b 380c c2bc
00000260: 7088 47bd e206 8e3d 021d a0bb 044c 873d
00000270: fdb1 8b3d 23ed 813d fde5 f63d 9178 94bd
00000280: 3cb1 95bd 36cd 9ebb 4994 6cbd ca3f b1bc
00000290: 1775 67bd df5e 2abe b416 c5bd caea 2fbe
000002a0: b66a 0a3d e015 51bd 2fe0 2a3d 0099 02bd
000002b0: e9d7 0a3d 0ee9 7a3d 0404 ddbc 8c4f 72bd
000002c0: 0162 9c3c c148 8fbd 85b7 00bb 3003 0bbd
000002d0: 33c4 80bc 4a5e 22be 8ff5 e7bc e9ae 303d
000002e0: 97f0 f6bb de95 90bc 5a45 f9bc cfc5 edbd
000002f0: ddf4 ecbb 20e6 babd 8c91 54be 4f3f 00bd
00000300: b55a 953d f214 91bd 2b03 db3d 7503 84bb
00000310: dcac eabc 075a 36bb 4949 2abe ca1c 1bbe
00000320: 3143 1cbe 0081 233d 4e72 a13b ca74 27be
00000330: f712 25bd 9d54 bbbc 49f9 823d 7ed5 6cbd
00000340: 42b6 f3bc a653 9abc 6b62 13be 02b0 3c3d
00000350: abb2 b73c 5e10 b4bc e049 753d 8d91 813d
00000360: 936c bbbe 489b f0bd 4035 26be 5e4b 02be
00000370: 6cac d3bd ad64 b4bd 2aaf 40bb 8ae1 243d
00000380: fe4a 913d 9d77 953c 32c6 823c dcde 603d
00000390: 3627 453d ee13 b13b 6dbd 323c 4ebe 763c
000003a0: 6c37 90bc c8a4 e5bc 0fb7 5abc b523 4bbd
000003b0: f7e6 70bd 0378 a93b bfbf b13d 715d 933d
000003c0: 19e1 86bd 83d5 34bd d320 76bd 3ec7 b23d
000003d0: 7f2c e53d 1659 d43d c73e afbd d738 3c3c
000003e0: afd1 f73c f355 fa3b 7850 15bc 16cc 84bd
000003f0: 8a59 6ebd e292 373d 750e 99bd 700a afbd

bias f4 [64]
-0.01273549 0.02388122 0.035070132 0.022741318 -0.023594137 0.091666244 0.08003618 0.04274772
-0.0818459 0.008630031 -0.01454433 0.091630585 -0.0048478167 0.07516425 -0.00091442757 0.0064326464
-0.03311167 0.022613114 0.0185257 -0.10416997 0.03138987 -0.027338764 -0.040236983 -0.034704402
0.06225085 -0.025429746 0.022200443 -0.049127046 0.0067900363 -0.028314078 -0.067860074 -0.046383023
-0.040617626 0.0040654903 -0.07106276 0.05918261 0.020654533 -0.055081908 0.007089673 0.038390644
0.019205103 0.04391381 0.03870651 -0.06496582 0.015262046 0.07134671 -0.009184511 0.015066914
0.065386586 6.79183e-05 0.04059271 0.083762966 0.07134415 -0.043988936 -0.007113159 -0.033716634
0.030047026 -0.0001607406 -0.016654206 -0.035639867 0.021030288 -0.108282685 0.03795794 -0.028306607
00000000: 84a8 50bc 8ca2 c33c b3a5 0f3d 004c ba3c
00000010: 7e48 c1bc 83bb bb3d 02ea a33d 3c18 2f3d
00000020: d39e a7bd f964 0d3c 574b 6ebc d1a8 bb3d
00000030: 6fda 9ebb b7ef 993d 32b6 6fba f3c8 d23b
00000040: 1aa0 07bd 233f b93c 35c3 973c 1157 d5bd
00000050: aa92 003d 8bf5 dfbc 89cf 24bd 3426 0ebd
00000060: bffa 7e3d 0b52 d0bc b4dd b53c 7139 49bd
00000070: f47e de3b edf2 e7bc 39fa 8abd 20fc 3dbd
00000080: ab5e 26bd ce37 853b 5a89 91bd 7769 723d
00000090: b233 a93c 919d 61bd 7d50 e83b 823f 1d3d
000000a0: 0554 9d3c f8de 333d b88a 1e3d cd0c 85bd
000000b0: a90d 7a3c 391e 923d a27a 16bc 38db 763c
000000c0: 67e9 853d 5c6f 8e38 8b44 263d eb8b ab3d
000000d0: e21c 923d be2d 34bd 8115 e9bb 741a 0abd
000000e0: 2e25 f63c 7a8c 28b9 676e 88bc 1cfb 11bd
000000f0: b647 ac3c 50c3 ddbd c979 1b3d 42e3 e7bc

weight f4 [128, 448]
0.03256689 -0.04087576 0.01569614 0.023783524 2.5339174e-05 -0.039842848 0.075833164 0.08510001
-0.029193467 0.10817786 0.03044932 0.02322562 -0.024276383 0.097480744 -0.043962903 -0.034555387
0.0022189596 0.03543123 -0.032012235 0.055619303 -0.07776474 -0.043682836 0.03677996 -0.0350794
0.015967967 -0.044669162 0.010769523 0.01730968 0.03680831 -0.067706674 -0.08665846 0.009751787
0.0059447503 -0.016065773 -0.10061788 0.0339132 0.022321364 0.050812755 -0.027756862 -0.022787351
0.08964542 0.058305223 -0.076335646 -0.03656699 -0.025883595 0.21806109 0.060616072 0.012748368
-0.06384723 0.031564035 0.051559743 0.010168185 0.048570875 -0.07459634 0.018977545 -0.060886666
0.025074515 -0.0543065 -0.0651211 0.037674885 0.17390579 -0.11425462 -0.060254246 -0.0031947398
-0.20033486 0.091055624 0.069831416 0.017005907 0.07863937 0.011932776 0.020258233 0.03241638
-0.017979557 0.017011998 -0.0150296 0.07754737 0.099001504 0.037538365 -0.029671516 0.012616153
0.016007163 0.10833505 0.050816797 0.06692396 -0.012547059 -0.00075879873 0.04825386 0.02362639
-0.019697784 0.016456474 0.027300885 -0.019308088 0.049104117 -0.008545245 -0.020596141 0.14161281
-0.0044316584 -0.043899428 -0.035193786 0.035331875 0.021616066 0.0037015853 0.021221522 0.029897977
-0.0061290045 -0.018748038 -0.039589554 -0.10406231 -0.04977966 0.055492777 -0.016483542 0.053994484
0.052608643 -0.04989864 0.056971528 -0.009892394 -0.039034408 -0.08376523 0.042642806 -0.007208485
-0.042435434 0.03793598 0.037079882 0.025190813 -0.027166368 0.046495575 -0.061530758 0.037334573
0.04985393 0.13790776 -0.03971162 0.11205261 -0.0655979 -0.052130245 -0.012345263 -0.11171893
-0.004043148 -0.10351642 0.03471142 0.018798266 0.01529895 0.02793553 0.046188857 -0.02872919
0.023499995 -0.054628387 0.06671344 0.008626617 0.011476415 0.02317265 -0.02675929 -0.11132818
0.047049653 0.028729891 -0.04165045 -0.030950924 0.037142552 0.035719153 -0.050436694 -0.011789925
0.023424866 0.10584275 -0.031286173 0.011050807 -0.014330782 0.014636261 -0.111562565 0.099507175
0.00364343 -0.0060083875 -0.023554815 -0.007317903 0.08245713 -0.036914166 -0.081250586 -0.021758704
-0.02782876 0.0039286613 -0.038214058 -0.04153648 0.00547041 0.027200561 0.093751244 0.021018287
-0.03342992 -0.054335833 -0.0108699985 0.008660833 0.022214327 -0.021249898 0.038206767 0.03844114
-0.043205168 0.025867809 0.028964128 0.020896662 -0.06844011 -0.02414123 -0.08408291 -0.051111564
-0.013823235 -0.01817464 0.08785046 0.024316434 -0.10311448 -0.08624348 -0.011321922 -0.071136475
-0.09795679 0.015998345 0.06611651 -0.04821336 -0.0739113 -0.083411485 0.06169121 0.027581273
-0.16347037 0.069621846 0.05679766 -0.032069024 -0.013293013 -0.07541471 -0.013146317 0.04215527
0.07622968 -0.01748871 -0.008365694 -0.0816615 -0.0074492255 -0.043156184 -0.0035035124 -0.04078351
-0.03204606 0.020163875 0.022323426 -0.040357426 0.03367466 0.017394066 0.023442876 -0.048665017
0.01621392 0.010357307 -0.04970106 -0.030551253 -0.0058565955 -0.04635585 0.008280677 0.03132477
-0.039631847 -0.048042767 0.010599959 0.026726779 -0.020251982 -0.06941954 -0.068974674 -0.12618335
00000000: dc64 053d 576d 27bd 3195 803c aad5 c23c
00000010: 768f d437 4132 23bd 6b4e 9b3d ea48 ae3d
00000020: 2327 efbc 5b8c dd3d da70 f93c a843 be3c
00000030: 44df c6bc fca3 c73d 7212 34bd f389 0dbd
00000040: f76b 113b 5620 113d 431f 03bd 11d1 633d
00000050: 1f43 9fbd c6ec 32bd 95a6 163d 6baf 0fbd
00000060: 41cf 823c 03f7 36bd a772 303c 08cd 8d3c
00000070: 4fc4 163d cca9 8abd fe79 b1bd f6c5 1f3c
00000080: 2ecc c23b 5e9c 83bc bf10 cebd 91e8 0a3d
00000090: 4bdb b63c 0921 503d 5c62 e3bc 8aac babc
000000a0: 0598 b73d 75d1 6e3d dd55 9cbd 45c7 15bd
000000b0: d509 d4bc 684b 5f3e 8f48 783d 88de 503c
000000c0: 56c2 82bd 4a49 013d 4f30 533d 7698 263c
000000d0: 41f2 463d f7c5 98bd cc76 9b3c 4c64 79bd
000000e0: 1269 cd3c 7e70 5ebd 365e 85bd fb50 1a3d
000000f0: 5c14 323e 54fe e9bd 28cd 76bd d75e 51bb
00000100: 9524 4dbe 5f7b ba3d c603 8f3d f94f 8b3c
00000110: ae0d a13d b181 433c 98f4 a53c 0ac7 043d
00000120: dd49 93bc bf5c 8b3c b63e 76bc 28d1 9e3d
00000130: 4dc1 ca3d d4c1 193d ae11 f3bc fbb3 4e3c
00000140: 7421 833c c4de dd3d 4625 503d 6e0f 893d
00000150: 2e92 4dbc 1fea 46ba d7a5 453d 228c c13c
00000160: 3f5d a1bc bacf 863c 1ba6 df3c ff2b 9ebc
00000170: 6621 493d 5b01 0cbc 3db9 a8bc f302 113e
00000180: 7237 91bb e3cf 33bd 5c27 10bd 28b8 103d
00000190: 2d14 b13c 4c96 723b c2d8 ad3c 9aec f43c
000001a0: d1d5 c8bb 7c95 99bc a828 22bd 9f1e d5bd
000001b0: c2e5 4bbd 654c 633d 7e08 87bc 5229 5d3d
000001c0: 297c 573d 8462 4cbd fa5a 693d b513 22bc
000001d0: 8be2 1fbd 1b8d abbd 39aa 2e3d 2835 ecbb
000001e0: c7d0 2dbd c262 1b3d 13e1 173d f75c ce3c
000001f0: 018c debc 2572 3e3d ad07 7cbd 23ec 183d
00000200: a233 4c3d b137 0d3e a7a8 22bd d77b e53d
00000210: 3158 86bd 8686 55bd c943 4abc e5cc e4bd
00000220: 627c 84bb 6b00 d4bd 902d 0e3d d2fe 993c
00000230: 72a8 7a3c 0dd9 e43c 8730 3d3d 7a59 ebbc
00000240: 1083 c03c 04c2 5fbd 0ea1 883d a756 0d3c
00000250: 9307 3c3c 92d4 bd3c 4c36 dbbc 0700 e4bd
00000260: 23b7 403d f35a eb3c aa99 2abd cb8c fdbc
00000270: ca22 183d 3f4e 123d b596 4ebd 882a 41bc
00000280: 81e5 bf3c 15c4 d83d ee25 00bd 720e 353c
00000290: a8cb 6abc eecc 6f3c ea7a e4bd 6bca cb3d
000002a0: 9dc6 6e3b 02e2 c4bb 07f6 c0bc 05cb efbb
000002b0: 49df a83d 4f33 17bd b566 a6bd 4f3f b2bc
000002c0: 24f9 e3bc 00bc 803b 5886 1cbd 2822 2abd
000002d0: 2041 b33b b6d3 de3c a700 c03d 8b2e ac3c
000002e0: d0ed 08bd 408f 5ebd 1418 32bc 2be6 0d3c
000002f0: d2fa b53c 4414 aebc b37e 1c3d 7574 1d3d
00000300: e7f7 30bd bae8 d33c 2e46 ed3c 7a2f ab3c
00000310: 542a 8cbd d4c3 c5bc a933 acbd 5c5a 51bd
00000320: da7a 62bc fce2 94bc f1ea b33d 4233 c73c
00000330: af2d d3bd 6ca0 b0bd 957f 39bc 00b0 91bd
00000340: 929d c8bd f60e 833c 1868 873d 5f7b 45bd
00000350: cf5e 97bd a4d3 aabd ecaf 7c3d 1ff2 e13c
00000360: c764 27be e695 8e3d aaa4 683d cf5a 03bd
00000370: f0ca 59bc 0773 9abd a663 57bc 01ab 2c3d
00000380: 4e1e 9c3d 7c44 8fbc 4410 09bc 253e a7bd
00000390: a218 f4bb 8ac4 30bd 2f9b 65bb 9c0c 27bd
000003a0: bb42 03bd b62e a53c 9edf b63c d44d 25bd
000003b0: 71ee 093d 007e 8e3c 460b c03c f854 47bd
000003c0: 0ed3 843c b2b1 293c 5793 4bbd 9f46 fabc
000003d0: afe8 bfbb a2df 3dbd adab 073c 674e 003d
000003e0: 0155 22bd 7ec8 44bd 73ab 2d3c 1ef2 da3c
000003f0: 7ce7 a5bc d52b 8ebd 9842 8dbd 3536 01be

bias f4 [128]
0.020076092 0.028007891 0.018442402 -0.04541946 0.023289701 -0.039805505 -0.03464976 -0.03206639
0.028096253 0.031312063 -0.0069670402 0.015573518 -0.049620878 0.043331873 0.02820184 -0.036481958
-0.04255978 0.003076648 -0.013934796 0.007816425 0.0020144705 -0.034554724 0.0075067836 -0.030400326
-0.02427794 -0.024052829 0.021182384 0.020857122 -0.01595982 0.018528406 -0.07531303 -0.024060814
-0.05833376 0.040245213 0.050004166 -0.039451662 0.015113046 -0.023062855 0.0054032514 -0.06903485
-0.08078022 -0.027857212 0.018946154 -0.043487467 -0.009731295 -0.0699774 -0.04577338 -0.023345469
-0.032872222 0.017798603 -0.008529193 0.033914186 0.012049116 0.034870703 -0.047037873 -0.037415233
-0.08923367 0.0012348006 -0.028815774 0.0502278 0.064956926 -0.01180901 0.0633903 -0.06802449
-0.019989988 -0.05578864 -0.029385451 0.024630262 -0.011460559 0.06498134 -0.036925998 -0.048470307
-0.014398728 -0.11669829 -0.0037601124 0.04201852 0.034751933 -0.103616126 -0.041049898 0.007757446
-0.03126742 0.00031610252 -0.0013484596 0.016965084 -0.040998623 0.036126778 -0.03731766 0.016212666
0.010585415 -0.11934056 -0.028572671 -0.014931344 -0.041009 0.011436937 -0.043456193 -0.03155298
-0.045105483 0.018653834 -0.025965221 0.017225884 -0.012651975 -0.0070710685 0.0096092075 -0.029238341
-0.09428292 0.039274283 -0.03171912 0.002227196 0.021432575 0.015918193 0.008902259 0.021482084
-0.049409457 0.014106278 -0.027899293 -0.025395736 -0.05146447 -0.05453395 -0.023447195 -0.10803031
-0.055156752 0.045789935 -0.08227608 -0.06937869 -0.085897274 0.055955708 -0.0066907792 -0.0088116
00000000: 9e76 a43c ce70 e53c 8514 973c c109 3abd
00000010: 0bca be3c 190b 23bd e8ec 0dbd 0c58 03bd
00000020: 1d2a e63c 1441 003d c54b e4bb 1228 7f3c
00000030: 433f 4bbd c37c 313d 8c07 e73c 1b6e 15bd
00000040: 2a53 2ebd 97a1 493b c54e 64bc 7610 003c
00000050: 3505 043b 4189 0dbd 77fb f53b 1b0a f9bc
00000060: 88e2 c6bc 700a c5bc ae86 ad3c 8edc aa3c
00000070: 2bbe 82bc e2c8 973c b83d 9abd 2f1b c5bc
00000080: 61ef 6ebd 2ad8 243d 2bd1 4c3d 1198 21bd
00000090: b69c 773c 50ee bcbc c20d b13b 2562 8dbd
000000a0: 1a70 a5bd cf34 e4bc f734 9b3c ea1f 32bd
000000b0: 0270 1fbc 5050 8fbd de7c 3bbd ff3e bfbc
000000c0: 06a5 06bd 60ce 913c 07be 0bbc 9ae9 0a3d
000000d0: a869 453c 95d4 0e3d c9aa 40bd b740 19bd
000000e0: 24c0 b6bd 08d9 a13a 0f0f ecbc aabb 4d3d
000000f0: 2308 853d 947a 41bc c6d2 813d 6c50 8bbd
00000100: 0bc2 a3bc a182 64bd c2b9 f0bc 67c5 c93c
00000110: 12c5 3bbc f014 853d b73f 17bd cd88 46bd
00000120: a4e8 6bbc 83ff eebd 386c 76bb 9d1b 2c3d
00000130: 0b58 0e3d b134 d4bd f023 28bd 2c32 fe3b
00000140: 4412 00bd 90ba a539 ccbe b0ba 5cfa 8a3c
00000150: 2cee 27bd acf9 133d 67da 18bd 6dd0 843c
00000160: 736e 2d3c d368 f4bd 3c11 eabc 99a2 74bc
00000170: 0ef9 27bd fe61 3b3c 1fff 31bd b33d 01bd
00000180: 87c0 38bd edcf 983c 04b5 d4bc 4c1d 8d3c
00000190: 3b4a 4fbc 6cb4 e7bb f06f 1d3c 3f85 efbc
000001a0: 6717 c1bd 12de 203d e8eb 01bd 26f6 113b
000001b0: 5e93 af3c df66 823c c8da 113c 32fb af3c
000001c0: 9261 4abd 051e 673c 0f8d e4bc b80a d0bc
000001d0: 68cc 52bd fe5e 5fbd 5514 c0bc ff3e ddbd
000001e0: 0cec 61bd 3a8e 3b3d 5d80 a8bd 6a16 8ebd
000001f0: e9ea afbd d031 653d 533e dbbb 875e 10bc

weight f4 [64, 128]
0.070573084 0.11920265 0.26139024 -0.118636884 0.24642725 -0.1853022 0.16978438 -0.18750297
-0.2600842 -0.12707457 -0.05355877 0.05415902 -0.024767112 0.1873529 0.04286109 0.117594875
0.081072904 -0.03893236 -0.030344246 0.048055418 -0.023131073 0.1312847 0.019614607 0.22701745
-0.17966342 -0.24242467 0.17009753 0.00056521746 0.1282236 -0.15766737 -0.19790855 0.038669065
-0.26224923 -0.091270514 0.112336375 -0.14501224 -0.22363143 0.003105033 -0.11172525 -0.07493468
-0.007869041 -0.088800594 0.2274329 0.14370109 -0.017968545 -0.15190926 0.0060668048 -0.18165037
-0.026677776 0.066506565 -0.0019368003 0.0978345 0.0822749 -0.18289854 -0.121959515 -0.07154824
-0.15061003 0.308771 0.017667629 -0.22191873 0.07125131 0.23727812 0.07781525 0.06979583
0.008274262 -0.14386909 -0.052679386 -0.12544882 -0.047749516 0.068505146 0.03646004 -0.076181434
-0.055780794 -0.14303172 -0.12567866 0.24649064 0.066348515 -0.09473044 -0.0138584925 -0.05041177
0.28016788 0.08970497 -0.041606136 0.11712866 -0.08987798 0.07442239 -0.11746961 0.24729484
0.13594666 -0.14324047 -0.034362223 0.019423094 -0.07201263 -0.20564035 -0.07480393 0.03395783
0.0057859644 0.20517129 0.041190643 -0.11279068 0.28316894 0.028864764 0.025573246 -0.10107217
-0.080531254 0.105470024 -0.15965673 0.0702464 0.118849106 0.082401685 0.21418971 -0.05042798
-0.123096175 0.12335597 -0.026949976 -0.021501238 0.050541926 -0.0023880547 -0.21481186 -0.18920097
0.08781253 -0.14118658 -0.1823407 0.10726787 0.0031863577 0.03044304 0.07883322 0.1000954
0.022653025 0.046287633 -0.1149226 -0.085869476 -0.12556094 -0.114302136 -0.2018758 0.117605545
0.21128006 0.21087159 0.063547306 -0.056496367 0.026499093 -0.12114281 0.07313971 -0.2032989
-0.064668365 -0.07011975 -0.054346528 -0.2613273 -0.041128725 -0.20282057 0.062333025 -0.16315208
0.08803758 0.16743265 -0.12336346 -0.040431455 -0.081037484 0.21646422 -0.14707431 0.019490775
0.075880006 0.20584486 0.060415436 -0.124076076 0.0743788 -0.021509249 0.22618984 -0.070442885
-0.12309736 -0.023034517 -0.13469714 -0.17192462 -0.080331385 -0.11008306 0.017105384 -0.06227007
-0.28834036 -0.025222773 0.00031324674 -0.07130635 0.012580267 0.115697354 0.06683304 -0.04711983
0.024483906 -0.19931403 0.04671494 0.117797434 -0.034305923 -0.061164755 -0.007071345 -0.26971057
-0.051704057 -0.16868302 0.0691798 0.063518226 0.113204226 0.04167986 0.053602286 -0.11016568
-0.23931935 0.0062871855 0.05284222 -0.11799832 -0.19193634 -0.1373766 0.040643655 -0.04826777
-0.06273767 -0.25573042 0.028463714 0.001065378 -0.026524384 -0.047359813 -0.0967259 -0.080645636
-0.17760032 -0.13590619 -0.14350492 0.087664686 0.06280356 0.16510527 -0.011784352 0.076689705
-0.073119536 -0.12778519 -0.030114915 0.10684805 -0.21934037 -0.010484874 0.04939969 -0.079400234
-0.08760873 -0.0034612464 -0.20293014 0.07813028 -0.18184759 0.08106519 -0.029036341 -0.01670821
-0.15380448 -0.07368803 0.006440027 0.051277287 -0.14830361 -0.0785872 0.10836817 -0.032863818
-0.1620089 0.06653743 -0.20626774 -0.16122623 -0.14774346 0.0753664 -0.1976072 -0.006802488
00000000: 9f88 903d 8520 f43d f1d4 853e e5f7 f2bd
00000010: 6d57 7c3e dcbf 3dbe f5db 2d3e c700 40be
00000020: c229 85be d61f 02be 7160 5bbd d9d5 5d3d
00000030: 66e4 cabc 70d9 3f3e 1c8f 2f3d 95d5 f03d
00000040: 8d09 a63d 8a77 1fbd 7f94 f8bc c2d5 443d
00000050: 607d bdbc 7f6f 063e d0ae a03c 4377 683e
00000060: b0f9 37be 2c3e 78be 0c2e 2e3e 1a2b 143a
00000070: 0c4d 033e 8e73 21be 8aa8 4abe 7463 1e3d
00000080: 8845 86be 09ec babd 9d10 e63d 177e 14be
00000090: a3ff 64be cf7d 4b3b 35d0 e4bd 5a77 99bd
000000a0: 26ed 00bc 16dd b5bd 2ce4 683e 6126 133e
000000b0: c532 93bc 1a8e 1bbe 0ccc c63b 8e02 3abe
000000c0: 5a8b dabc 9834 883d 3cdc fdba 745d c83d
000000d0: be7f a83d c149 3bbe e9c5 f9bd e287 92bd
000000e0: 8439 1abe 3c17 9e3e b4bb 903c aa3e 63be
000000f0: 35ec 913d 09f9 723e 9a5d 9f3d 1ef1 8e3d
00000100: c590 073c 6b52 13be 57c6 57bd a875 00be
00000110: ff94 43bd 6d4c 8c3d 1f57 153d 0305 9cbd
00000120: 677a 64bd e876 12be e8b1 00be 0b68 7c3e
00000130: bbe1 873d 0802 c2bd bb0e 63bc 927c 4ebd
00000140: 2a72 8f3e 3db7 b73d 326b 2abd 27e1 ef3d
00000150: f211 b8bd c46a 983d e893 f0bd dc3a 7d3e
00000160: 9a35 0b3e a1ad 12be 67bf 0cbd 2e1d 9f3c
00000170: 5c7b 93bd 6293 52be ce32 99bd 5e17 0b3d
00000180: 3098 bd3b 6c18 523e 85b7 283d cdfe e6bd
00000190: 85fb 903e cc75 ec3c fc7e d13c edfe cebd
000001a0: 92ed a4bd ab00 d83d 0e7d 23be 58dd 8f3d
000001b0: 2967 f33d 37c2 a83d 8c54 5b3e 928d 4ebd
000001c0: d919 fcbd 0ea2 fc3d 32c6 dcbc 5d23 b0bc
000001d0: 0d05 4f3d e980 1cbb a4f7 5bbe e6bd 41be
000001e0: 0ed7 b33d 3793 10be 85b7 3abe 42af db3d
000001f0: 36d2 503b af63 f93c 5073 a13d d1fe cc3d
00000200: d692 b93c 1a98 3d3d 8a5c ebbd 56dc afbd
00000210: 0c93 00be 3d17 eabd 88b8 4ebe 2ddb f03d
00000220: cd59 583e b9ee 573e 1725 823d bc68 67bd
00000230: a014 d93c b919 f8bd 46ca 953d 962d 50be
00000240: d970 84bd f29a 8fbd 779a 5ebd b1cc 85be
00000250: 9876 28bd 32b0 4fbe ea50 7f3d 5711 27be
00000260: 0c4d b43d 7773 2b3e fba5 fcbd 749b 25bd
00000270: fbf6 a5bd cca8 5d3e a69a 16be 1eab 9f3c
00000280: fa66 9b3d ffc8 523e 2d76 773d 991b febd
00000290: ea53 983d 2a34 b0bc 4f9e 673e 5c44 90bd
000002a0: 781a fcbd e2b2 bcbc 0cee 09be 020d 30be
000002b0: c884 a4bd 3a73 e1bd 9720 8c3c e70e 7fbd
000002c0: 59a1 93be fd9f cebc 443b a439 1009 92bd
000002d0: 771d 4e3c bcf2 ec3d c3df 883d b900 41bd
000002e0: 7992 c83c fa18 4cbe 2a58 3f3d c83f f13d
000002f0: 5e84 0cbd e587 7abd beb6 e7bb 8117 8abe
00000300: a2c7 53bd 3ebb 2cbe 24ae 8d3d d815 823d
00000310: 9ed7 e73d 80b8 2a3d 128e 5b3d 8b9e e1bd
00000320: 2210 75be bc04 ce3b 1571 583d 1aa9 f1bd
00000330: f68a 44be 74ac 0cbe f679 263d 6db4 45bd
00000340: 9c7c 80bd 19ef 82be bc2c e93c 27a4 8b3a
00000350: aa49 d9bc 5dfc 41bd 3b18 c6bd 8a29 a5bd
00000360: dcdc 35be fe2a 0bbe f4f2 12be 8b89 b33d
00000370: 279f 803d 5b11 293e 2813 41bc 7e0f 9d3d
00000380: b2bf 95bd 1fda 02be 8eb3 f6bc 27d3 da3d
00000390: c39a 60be c0c8 2bbc 5457 4a3d 979c a2bd
000003a0: 356c b3bd 14d6 62bb ebcc 4fbe c502 a03d
000003b0: 4136 3abe 8205 a63d 9fdd edbc a8df 88bc
000003c0: ec7e 1dbe c0e9 96bd dd06 d33b 2208 523d
000003d0: e7dc 17be 53f2 a0bd 22f0 dd3d 369c 06bd
000003e0: a9e5 25be c744 883d da37 53be 7d18 25be
000003f0: 104a 17be b359 9a3d 8b59 4abe 68e7 debb

bias f4 [64]
0.10959654 0.26762557 -0.049456514 0.05250262 0.1584127 -0.05078178 0.048863806 -0.012838985
0.16278572 0.13226138 0.2302116 0.20953701 0.25444704 0.023719098 0.048353363 0.24293624
0.06464082 -0.0073421346 -0.023635298 0.04097736 0.25941062 0.12000899 -0.06902005 0.25106832
-0.081317626 -0.10571021 0.023853945 -0.10539006 0.22670212 0.05859584 0.1308278 0.20764522
0.03545718 0.2162119 -0.07808296 0.2560721 -0.026368096 0.12672605 -0.051752865 0.06638217
0.049100894 0.0024527716 0.07416198 0.22935753 0.09646729 0.25822583 -0.066670194 0.014973991
0.1651179 -0.053178217 0.05988772 0.2661191 -0.06347174 0.055190623 0.038216334 -0.04313992
0.16686895 0.30772734 0.2706838 0.03854198 -0.0076941373 -0.12700552 0.09398418 0.2099039
00000000: 2774 e03d 3806 893e ea92 4abd fd0c 573d
00000010: f036 223e 8e00 50bd 6a25 483d 9b5a 52bc
00000020: 4db1 263e 876f 073e 97bc 6b3e df90 563e
00000030: e246 823e 8e4e c23c 2d0e 463d 47c4 783e
00000040: 6862 843d 4a96 f0bb d09e c1bc e0d7 273d
00000050: 78d1 843e 46c7 f53d 625a 8dbd 078c 803e
00000060: db89 a6bd 987e d8bd 5969 c33c bed6 d7bd
00000070: 9a24 683e 3102 703d b9f7 053e f3a0 543e
00000080: 8c3b 113d a766 5d3e f5e9 9fbd e21b 833e
00000090: e801 d8bc 79c4 013e d0fa 53bd 60f3 873d
000000a0: 051e 493d aebe 203b 3ce2 973d b3dc 6a3e
000000b0: a490 c53d 2d36 843e 628a 88bd 7855 753c
000000c0: ab14 293e 67d1 59bd d34c 753d c340 883e
000000d0: 79fd 81bd 900f 623d bb88 1c3d 7cb3 30bd
000000e0: b2df 2a3e 708e 9d3e 1197 8a3e 32de 1d3d
000000f0: 1a1f fcbb bc0d 02be c77a c03d 0cf1 563e

weight f4 [3, 64]
0.14837566 -0.18812808 -0.28920934 -0.32144773 -0.20696695 -0.31783444 0.16018339 0.07564192
-0.011787356 -0.026422292 -0.037383135 -0.24728732 -0.011995011 0.28029692 0.4062004 -0.2541954
0.48217386 -0.36021736 0.11293773 0.38737208 -0.20621072 0.47894776 -0.29392326 -0.14640076
-0.2848163 -0.35837412 -0.3725435 -0.32126105 -0.20958091 0.33806965 -0.29603744 -0.2320029
0.3705777 -0.22796808 -0.32014185 -0.21881773 -0.004445961 0.34439114 0.06840562 0.14475517
-0.27286044 -0.31379706 0.49743629 -0.023289394 -0.31596482 -0.22049308 -0.3726698 -0.1906328
0.3915434 -0.30796108 0.43243977 -0.18901351 -0.3265695 0.3315092 -0.2786763 0.052592643
-0.20280613 -0.048288003 -0.020462776 0.35239404 0.10203691 -0.27931845 -0.34175923 -0.2594335
-0.09768235 0.18984509 -0.26212764 -0.28200853 0.2112896 -0.23007035 -0.46711022 -0.5281009
0.030113764 0.043889083 0.055966143 0.2527765 0.029430958 -0.31768683 -0.31066316 0.27744627
-0.31297916 -0.24448285 -0.39673755 -0.259459 0.20776859 -0.30574256 -0.2752974 0.14236681
-0.33949596 -0.2015731 -0.17851247 -0.28433862 0.21013442 -0.3206478 0.18795894 0.22620878
-0.2601729 0.23483522 -0.2818565 0.22816236 -0.5040162 -0.24259463 -0.4775557 -0.39913508
0.18937458 -0.24955958 -0.35334277 0.041115135 0.18867584 0.2242979 -0.2705776 0.2460183
-0.32550666 -0.28825763 -0.30813473 0.18729404 -0.28619903 -0.2530421 0.18140131 -0.4949444
0.203111 0.055279158 0.034090865 -0.26749408 -0.4998288 -0.29614457 0.20802227 0.30955708
-0.4174854 -0.45797262 0.25059602 0.2677759 -0.46476448 0.25406334 -0.016407048 0.029833883
-0.5854769 -0.6633164 -0.560597 -0.26067212 -0.52053416 -0.13322808 -0.22417203 -0.31038743
-0.20695099 0.2857109 0.016990244 -0.36862797 -0.4933206 -0.27071297 0.2624198 -0.52338815
0.23248424 0.2760989 0.29194003 0.2601466 -0.5075098 -0.21861994 0.16403751 -0.48999843
-0.31039378 -0.39505693 0.23367628 -0.48249295 0.072684094 -0.3446741 0.033019576 -0.018836007
0.1068031 0.28102684 -0.28978124 -0.5411586 0.14723442 -0.3371886 0.2834794 0.021134686
-0.27743113 0.24843659 -0.28893593 -0.44680727 0.2503769 -0.2956996 0.1105196 0.029893465
-0.47386795 -0.51928276 -0.57801026 -0.32044306 0.014278192 0.24261077 0.15625653 -0.2555703
00000000: caef 173e a6a4 40be 3f13 94be cc94 a4be
00000010: 25ef 53be 32bb a2be 1d07 243e 27ea 9a3d
00000020: c11f 41bc 9073 d8bc 0f1f 19bd e338 7dbe
00000030: b986 44bc 1483 8f3e 80f9 cf3e e625 82be
00000040: 7edf f63e 696e b8be e64b e73d a255 c63e
00000050: e728 53be a438 f53e 1c7d 96be 15ea 15be
00000060: 71d3 91be d07c b7be 06be bebe 547c a4be
00000070: 619c 56be 7717 ad3e 3892 97be 2b92 6dbe
00000080: 5cbc bd3e 7770 69be a2e9 a3be c111 60be
00000090: 6daf 91bb 0954 b03e 3f18 8c3d b33a 143e
000000a0: 5db4 8bbe 02aa a0be f8af fe3e 66c9 bebc
000000b0: 24c6 a1be f0c8 61be 93ce bebe 3f35 43be
000000c0: 6078 c83e 13ad 9dbe bf68 dd3e c28c 41be
000000d0: 1e34 a7be 93bb a93e a9ae 8ebe 626b 573d
000000e0: 69ac 4fbe a4c9 45bd 8da1 a7bc fe6c b43e
000000f0: baf8 d03d d402 8fbe 11fb aebe 78d4 84be
00000100: af0d c8bd c066 423e 9835 86be 6c63 90be
00000110: 4d5c 583e 9097 6bbe 1229 efbe 9f31 07bf
00000120: 24b1 f63c 0ac5 333d c13c 653d ec6b 813e
00000130: 3119 f13c d9a7 a2be 3e0f 9fbe 700d 8e3e
00000140: ce3e a0be b659 7abe 2f21 cbbe cfd7 84be
00000150: 4ac1 543e 4a8a 9cbe c8f3 8cbe 9bc8 113e
00000160: 6ad2 adbe 2e69 4ebe f9cb 36be d594 91be
00000170: 7a2d 573e f32b a4be 4f78 403e 46a3 673e
00000180: 6235 85be a578 703e 7f4f 90be 65a3 693e
00000190: 3507 01bf ba6a 78be 2e82 f4be 6f5b ccbe
000001a0: 69eb 413e 8c8c 7fbe 58e9 b4be 5868 283d
000001b0: 3d34 413e 59ae 653e 2689 8abe 39ec 7b3e
000001c0: cfa8 a6be 8196 93be d6c3 9dbe 02ca 3f3e
000001d0: ae88 92be bc8e 81be 44c1 393e 5a69 fdbe
000001e0: 54fc 4f3e 666c 623d dda2 0b3d fcf4 88be
000001f0: 8fe9 ffbe 43a0 97be ca03 553e 447e 9e3e
00000200: a5c0 d5be 637b eabe 1f4e 803e ec19 893e
00000210: 9cf5 edbe 9714 823e 1368 86bc 3066 f43c
00000220: d0e1 15bf 1bcf 29bf 4983 0fbf d176 85be
00000230: ba41 05bf f16c 08be 5a8d 65be 1aeb 9ebe
00000240: f6ea 53be b348 923e 202f 8b3c cebc bcbe
00000250: 8594 fcbe e49a 8abe e35b 863e c4fc 05bf
00000260: 5910 6e3e d65c 8d3e 2a79 953e ef31 853e
00000270: 2aec 01bf e8dd 5fbe 73f9 273e 13e1 fabe
00000280: efeb 9ebe e744 cabe d648 6f3e 5109 f7be
00000290: 66db 943d 2079 b0be 893f 073d f84d 9abc
000002a0: 95bb da3d c0e2 8f3e 355e 94be 5f89 0abf
000002b0: 9fc4 163e fca3 acbe 3624 913e a622 ad3c
000002c0: 740b 8ebe 2966 7e3e 69ef 93be ecc3 e4be
000002d0: 6731 803e f065 97be 1a58 e23d 24e3 f43c
000002e0: d29e f2be b7ef 04bf 7bf8 13bf 1d11 a4be
000002f0: 14ef 693c f56e 783e b601 203e 1cda 82be

bias f4 [3]
-0.32110932 0.3036239 -0.44030288
00000000: 7168 a4be 9874 9b3e 616f e1be
