results/trained_models/CustomCNN_Terrain.pth (torch, 364621 bytes, 12 tensors)

weight f4 [16, 4, 3, 3]
0	0xbe840759	-0.25786856
1	0xbb9bc455	-0.004753629
2	0x3cd4ad54	0.025961556
3	0xbe4b1f77	-0.19836222
4	0x3e869258	0.26283526
5	0x3d8997e5	0.06718425
6	0xbe368448	-0.17823899
7	0xbe6cb435	-0.23115619
8	0xbdd6f6e5	-0.1049631
9	0xbd41d103	-0.04731847
10	0x3e1543fc	0.14576715
11	0xbda4100e	-0.08010875
12	0x3e354337	0.17701422
13	0x3bbc2220	0.0057413727
14	0xbe40f261	-0.1884246
15	0x3dff7950	0.124743104
16	0x3e8d26da	0.27568704
17	0x3e565701	0.20931627
18	0x3e34485d	0.1760573
19	0xbdde794d	-0.1086298
20	0xbe2efdb1	-0.17088963
21	0xbb2b6409	-0.0026152155
22	0x3d63173a	0.055442072
23	0xbe1ac4ac	-0.15114087
24	0xbdf2bcd1	-0.1185242
25	0x3d91b8d3	0.071153305
26	0x3e07c254	0.13257724
27	0x3d7c286e	0.061561994
28	0x3dd4c7f2	0.10389699
29	0xbdc90312	-0.09815039
30	0x3df17268	0.117893994
31	0xbd46928c	-0.0484796
32	0xbe10e494	-0.14149696
33	0xbcf2f408	-0.029657379
34	0x3d8665d8	0.06562394
35	0xbdb06e8e	-0.08614837
36	0xbdeeb232	-0.11655082
37	0x3d0404fc	0.032231316
38	0x3d9d80a5	0.076905526
39	0x3d850d2c	0.06496653
40	0x3e704819	0.23465003
41	0xbcf56424	-0.029954977
42	0xbc1053b6	-0.008809021
43	0xbdd4d541	-0.103922375
44	0xbc36efe6	-0.011165595
45	0x3dd33cbe	0.1031432
46	0x3e45a5e1	0.19301559
47	0xbd3b8cdc	-0.04578863
48	0x3e8e3de8	0.27781606
49	0xbb5c2594	-0.0033591734
50	0x3e78334c	0.24238318
51	0x3d97b456	0.07407443
52	0xbd71ba75	-0.05901571
53	0xbb95ea83	-0.004575075
54	0x3e4fb95c	0.20285553
55	0x3e0a68ac	0.13516492
56	0x3d2f463f	0.0427916
57	0xbe0c29d0	-0.13687825
58	0xbe321437	-0.17390524
59	0xbaf55ca2	-0.0018719623
60	0xbddffafd	-0.10936544
61	0xbe54ed36	-0.20793614
62	0xbd5e2dae	-0.054242782
63	0x3e2f1767	0.17098771
64	0xbdd56617	-0.10419863
65	0xbcbdf280	-0.023186922
66	0x3de65c0b	0.112480246
67	0xbde4b5e3	-0.11167505
68	0x3dab1b3a	0.083548024
69	0xbe149b2a	-0.14512315
70	0xbde47368	-0.111548245
71	0xbe417294	-0.18891364
72	0x3d60ae84	0.05485393
73	0xbe1be88c	-0.15225428
74	0xbda59d86	-0.08086686
75	0xbe4fc483	-0.20289807
76	0xbea68f35	-0.32531133
77	0x3dd8acc5	0.10579828
78	0xbd0a4480	-0.033756733
79	0xbe19bfb0	-0.15014529
80	0xbdf2e0ec	-0.11859307
81	0x3e75511d	0.23956724
82	0xbce98a62	-0.028508369
83	0xbdcbb0b6	-0.09945814
84	0x3e8a44be	0.2700557
85	0xbdc49b5a	-0.095999435
86	0x3d5dd700	0.054160118
87	0x3e67bbd0	0.22630239
88	0xbda88b80	-0.082297325
89	0x3e180c91	0.14848544
90	0xbe7d1609	-0.24715437
91	0x3d29e48b	0.04147772
92	0x3bd2a68e	0.0064285463
93	0xbdf0b470	-0.11753166
94	0x3d6e29ff	0.05814552
95	0x3df50a3c	0.11964843
96	0x3cf248bc	0.029575698
97	0x3e074370	0.13209319
98	0x3d931d11	0.07183278
99	0xba0bfb30	-0.0005339859
100	0xbdb40361	-0.08789707
101	0x3dd918ed	0.10600457
102	0xbe107c6f	-0.14109968
103	0x3e093e1b	0.13402598
104	0xbe3462bd	-0.1761579
105	0xbe173419	-0.14765967
106	0x3dc88610	0.097911954
107	0x3dff5cef	0.124688976
108	0xbe0860b5	-0.13318141
109	0x3e289fde	0.16467234
110	0x3d8ad6c3	0.06779244
111	0xbd0b2900	-0.033974648
112	0x3c908d7f	0.017645596
113	0x3e413b4d	0.18870278
114	0xbe23aa4a	-0.15982929
115	0x3e656437	0.2240151
116	0xbd461e0a	-0.04836849
117	0xbe1ace88	-0.15117848
118	0x3e0bf0c0	0.13666058
119	0x3e5d4a3f	0.21610354
120	0xbe5ed839	-0.2176217
121	0xbddd60cd	-0.10809479
122	0x3d852732	0.065016165
123	0xbd7a59ba	-0.061120726
124	0x3b6bb430	0.0035965554
125	0x3e524a2c	0.20536107
126	0x3d4a7101	0.049424175
127	0xbe4433e0	-0.19160414
128	0xbdd0a929	-0.10188515
129	0x3dff164f	0.12455427
130	0x3d36e40c	0.044651076
131	0xb9f37590	-0.00046436163
132	0xbc37d708	-0.011220701
133	0xbe2b0925	-0.16702707
134	0x3c18f194	0.00933494
135	0xbdb8ee69	-0.09029848
136	0x3cec8540	0.028872132
137	0xbc4fc09b	-0.012680198
138	0xbdf7b70a	-0.12095459
139	0xbdea0be7	-0.114280514
140	0x3b6653b2	0.00351451
141	0xbc341d2f	-0.010993286
142	0x3d0d59d0	0.03450948
143	0x3d9a36d7	0.07529991
144	0xbce88a3e	-0.028386232
145	0x3d25205d	0.040314067
146	0x3cd5c86f	0.02609655
147	0xbd95fbff	-0.07323455
148	0x3d607a96	0.054804407
149	0xbd789a99	-0.06069431
150	0xbe34b420	-0.17646837
151	0xbe725f11	-0.23669077
152	0xbebb0979	-0.36530665
153	0xbe241a24	-0.16025597
154	0x3e108475	0.14113028
155	0x3e139cfb	0.14415352
156	0x3dd4d664	0.10392454
157	0x3d4730ef	0.04863065
158	0x3bb4f97c	0.005522905
159	0x3e20d356	0.15705618
160	0x3e1144ba	0.14186373
161	0xbca3d9fa	-0.0200014
162	0x3e29311b	0.16522638
163	0x3d68401d	0.05670177
164	0x3dc96b44	0.098349124
165	0x3cbf4c32	0.023351762
166	0xbd62ba34	-0.05535336
167	0xbb3bdb9d	-0.0028664835
168	0x3d4610e4	0.048355952
169	0x3d990cb4	0.07473126
170	0x3ced0093	0.028930938
171	0x3de66dbc	0.11251399
172	0xbd156832	-0.03647632
173	0x3d8b0201	0.067874916
174	0xbd74a68e	-0.05972915
175	0x3e01e9f8	0.12686908
176	0xbe2a1dce	-0.16612932
177	0x3d8e0179	0.06933875
178	0xbdf79215	-0.1208841
179	0x3e09e159	0.1346487
180	0xbe08e3b0	-0.13368106
181	0x3d949e71	0.07256783
182	0x3dd115da	0.10209246
183	0x3e015400	0.126297
184	0x3de6a21e	0.1126139
185	0xbdf2135c	-0.11820099
186	0x3df92ec3	0.12167122
187	0x3d3e5bd0	0.046474278
188	0x3e32b557	0.17451988
189	0xbe3a364c	-0.18184775
190	0x3e258a47	0.1616603
191	0x3dced94d	0.101000406
192	0x3c1c8280	0.009552598
193	0x3e89cb51	0.2691293
194	0x3dfecc34	0.124412924
195	0x3d0de45f	0.03464162
196	0x3e0e8e21	0.13921405
197	0x3e612fc6	0.2199088
198	0x3e43e7aa	0.19131342
199	0x3df28293	0.11841311
200	0xbdfd49ce	-0.12367593
201	0xbdf88f36	-0.1213669
202	0xbe80fc0f	-0.25192305
203	0xbe3997c6	-0.18124303
204	0x3de06678	0.10957044
205	0xbe40a7e8	-0.18814051
206	0xbccb0ba8	-0.024785832
207	0xbe0c9420	-0.1372838
208	0xbd38c619	-0.045110796
209	0x3cd63f3c	0.0261532
210	0x3cc47995	0.023983756
211	0x3df8b522	0.12143923
212	0xbda6d44e	-0.08145963
213	0x3c35ba6d	0.011091811
214	0xbdeb6eb5	-0.11495725
215	0xbd6f17a4	-0.058372155
216	0x3ea0d6a9	0.31413773
217	0x3e9c4e3d	0.3052844
218	0x3decb2d4	0.11557546
219	0x3ea6e3e3	0.3259574
220	0x3daca146	0.08429198
221	0x3e8115de	0.25211996
222	0xbc2f0b54	-0.010683853
223	0xbca9ad54	-0.020712532
224	0x3d69a17f	0.05703878
225	0x3dc26e3c	0.09493682
226	0xbd10933a	-0.035296656
227	0x3e7442f2	0.23853663
228	0x3e0c777c	0.13717455
229	0x3d5f4caf	0.05451649
230	0xbdf9e059	-0.12200994
231	0xbdfb11b8	-0.12259239
232	0xbe0c588f	-0.13705657
233	0x3ce034c2	0.027368907
234	0xbe0d6924	-0.13809639
235	0xbdbffd85	-0.09374527
236	0xbd384410	-0.044986784
237	0xbbb505e7	-0.0055243853
238	0xbe37dc10	-0.17955041
239	0xbe4923bc	-0.19642538
240	0x3e0403fa	0.12892142
241	0x3db846f6	0.0899791
242	0xbe1cafc0	-0.15301418
243	0x3ca36901	0.01994753
244	0x3a29ce52	0.00064775825
245	0x3cc19975	0.023632744
246	0x3c515950	0.012777641
247	0x3bd78c2f	0.0065779905
248	0xbdbf4a13	-0.093403004
249	0x3b16310e	0.0022917422
250	0x3d0e99f1	0.03481478
251	0x3ab15ed8	0.0013532294
252	0x3da6867c	0.081311196
253	0xbe39a64d	-0.18129845
254	0xbdcef601	-0.10105515
255	0x3dec7ff1	0.115478404

bias f4 [16]
0	0xbbfc5ee6	-0.0077017425
1	0xbced004b	-0.028930804
2	0x3d9afa14	0.0756723
3	0x3e2b5fe4	0.16735798
4	0x3d9b3dde	0.075801596
5	0x3d496827	0.049171593
6	0x3d46d1c8	0.048539907
7	0xbdee1b9c	-0.1162636
8	0xbe15a199	-0.14612426
9	0xbdd99991	-0.106249936
10	0x3d1cf95b	0.03832374
11	0x3da5d5d0	0.08097422
12	0xbe276757	-0.16348015
13	0xbce373c0	-0.027765155
14	0x3e15883f	0.14602755
15	0x3dbc8763	0.092055105

weight f4 [32, 16, 3, 3]
0	0x3dc488f0	0.09596431
1	0xbd4aa5bd	-0.049474467
2	0x3d98fdda	0.07470293
3	0xbdc462e4	-0.095891744
4	0xbe0c87ed	-0.13723727
5	0x3d5b0e0f	0.053480204
6	0x3ce82a8a	0.028340597
7	0x3d26149d	0.040547002
8	0xbd07bd63	-0.033139598
9	0xbb493f68	-0.003070796
10	0xbd15449f	-0.036442395
11	0x3cce7177	0.025200589
12	0x3d27976b	0.040915888
13	0xbb8c334a	-0.004278575
14	0x3e80b492	0.25137764
15	0xbc8b191a	-0.016979743
16	0xbdf23782	-0.118269935
17	0xbe8dbf95	-0.27685228
18	0xbc9f9dd7	-0.019484444
19	0x3dfbe985	0.123004
20	0xbdfb7e27	-0.12279921
21	0x3d87138c	0.06595525
22	0x3dcd020b	0.10010155
23	0xbd655768	-0.05599156
24	0xbd519291	-0.051165167
25	0x3dc468da	0.09590311
26	0xbd9a678a	-0.0753928
27	0x3e2b7f59	0.16747798
28	0x3ddf0318	0.10889262
29	0x3d3be51f	0.045872804
30	0x3e0e3707	0.13888179
31	0x3d9d1a75	0.07671062
32	0x3da50aff	0.08058738
33	0x3dac5058	0.08413762
34	0xbdce4518	-0.10071772
35	0x3dbb6afa	0.091512635
36	0x3ca7c663	0.02048034
37	0xbc623fbc	-0.013809141
38	0x3d66f27b	0.05638359
39	0xbd97c93b	-0.074114285
40	0x3d4a3c21	0.04937375
41	0xbd990f11	-0.07473577
42	0xbd55e461	-0.052219752
43	0x3d12a938	0.03580591
44	0xbd8beed1	-0.0683266
45	0x3d5b5dd5	0.053556282
46	0xbd8d2b4c	-0.06893024
47	0xbd0ddf98	-0.034637064
48	0x3d3a7ff8	0.045532197
49	0xbdce188e	-0.10063277
50	0xbd0a1bea	-0.033718027
51	0x3dd82e6d	0.1055573
52	0xbc8f9e33	-0.01753149
53	0x3c44f6f8	0.012021773
54	0x3e057cd6	0.13035902
55	0x3b8ef25c	0.0043623876
56	0xbdfe7380	-0.124243736
57	0xbbc242e4	-0.005928384
58	0xbde4ef3c	-0.11178443
59	0xbcea5110	-0.028603107
60	0x3dbd8e5d	0.09255669
61	0xbcce16c0	-0.025157332
62	0xbe33c1cd	-0.17554398
63	0xbd4f5fd6	-0.050628506
64	0x3e03c00d	0.1286623
65	0x3cbbe36b	0.02293559
66	0x3d895743	0.06706097
67	0x3d69c456	0.057072006
68	0xbdbd324c	-0.09238109
69	0x3da13f62	0.078734174
70	0x3c349427	0.01102165
71	0xbdbad602	-0.0912285
72	0x3e0a1b01	0.13486864
73	0x3dab3276	0.08359234
74	0x3dd0eedf	0.10201811
75	0x3da21e1a	0.07915898
76	0xbe48662a	-0.19570222
77	0xbe052412	-0.13002041
78	0x3da655fc	0.08121869
79	0x3d567152	0.052354164
80	0x3de40868	0.11134416
81	0x3df840c3	0.12121727
82	0xbdb96fc0	-0.09054518
83	0x3d07f036	0.033188067
84	0xbce43fcb	-0.02786245
85	0xbde40919	-0.11134548
86	0xbe0ea683	-0.13930707
87	0x3e2563bb	0.16151325
88	0x3d42426f	0.047426637
89	0xbe3654e1	-0.17805816
90	0xbd4a2196	-0.049348436
91	0xbdbaa244	-0.09112981
92	0xbccadba0	-0.024762928
93	0x3db7211a	0.089418605
94	0xbdf60d43	-0.12014248
95	0xbd73afa4	-0.059493676
96	0x3d93427e	0.07190417
97	0xbdc4bb7d	-0.09606073
98	0xbdb8300e	-0.08993541
99	0x3e33cb45	0.1755801
100	0xbc1c5192	-0.009540932
101	0xbb0503de	-0.0020296494
102	0x3e39651b	0.18104975
103	0xbe48431a	-0.19556847
104	0x3db8ad56	0.09017436
105	0x3e32e635	0.1747063
106	0x3ebb6c1f	0.36605927
107	0x3e6b2085	0.22961624
108	0x3dd5e4c6	0.10444026
109	0x3e0a1bb5	0.13487132
110	0xbdea686a	-0.11445697
111	0x3d517f13	0.051146578
112	0x3d3b59c7	0.045739915
113	0xbe4b880b	-0.19876115
114	0x3dd44980	0.103655815
115	0x3d849c4b	0.06475123
116	0xbe5f513b	-0.2180833
117	0x3d90476e	0.07044874
118	0x3dc64fef	0.09683215
119	0xbe37cc1d	-0.17948957
120	0x3dbed1f0	0.09317386
121	0x3d7955da	0.06087289
122	0xbdbd74e5	-0.092508115
123	0x3dd38032	0.10327186
124	0xbd32073a	-0.043463923
125	0xbe1e5efd	-0.15465923
126	0x3e1ab33d	0.15107436
127	0x3d158f2f	0.036513504
128	0x3d108d97	0.03529128
129	0x3dbf8a85	0.093525924
130	0x3dc25efb	0.09490772
131	0xbd9117d7	-0.07084625
132	0x3e6d86e2	0.23195985
133	0xbce81679	-0.028331028
134	0x3d8b2418	0.06793994
135	0xbc8c55f5	-0.017130831
136	0xbc93fcdf	-0.018064914
137	0x3b83b767	0.004019666
138	0x3dd3b109	0.10336501
139	0xbb075e4c	-0.002065557
140	0xbd5c3885	-0.05376484
141	0x3e3bfe26	0.18358669
142	0xbc15530f	-0.009114041
143	0xbe038c5c	-0.12846512
144	0x3ce71633	0.028208828
145	0x3c8fa13a	0.017532934
146	0xbb9de1d0	-0.0048181787
147	0x3d58e427	0.052951958
148	0xbcab9df9	-0.02094935
149	0xbd5c3644	-0.05376269
150	0xbdb31d21	-0.0874579
151	0xbda1330a	-0.07871063
152	0xbbfd9001	-0.007738114
153	0xbd043280	-0.032274723
154	0x3d7ee14a	0.06222657
155	0xbd2f5b8b	-0.04281191
156	0xbcea4a30	-0.028599828
157	0x3ca6077c	0.02026724
158	0x3d58b295	0.052904684
159	0xbd744548	-0.059636384
160	0x3d5d783e	0.05406975
161	0x3d3f2157	0.046662655
162	0xbda26a03	-0.079303764
163	0xbc4cb67f	-0.012494682
164	0x3b133b03	0.0022465594
165	0x3d75e268	0.06003037
166	0xbd3c72df	-0.046007987
167	0xbd0b4e7f	-0.034010407
168	0xbd056774	-0.032569364
169	0x3c1f1536	0.009709647
170	0xbdcc02b1	-0.09961451
171	0x3d9c054f	0.076182
172	0x3cf7a056	0.030227821
173	0x3cc704a3	0.024294203
174	0x3befbb00	0.0073159933
175	0xbcff88d2	-0.03119317
176	0x3d3f6a53	0.046732258
177	0x3d5d1a1e	0.053979985
178	0x3d681cb0	0.056667984
179	0x3d864ff8	0.065582216
180	0xbc6fdeaf	-0.014640494
181	0x3be47aff	0.00697267
182	0xbc5bfd30	-0.013427064
183	0x3d8e2926	0.06941442
184	0xbdbde97d	-0.0927305
185	0xbc3b52e3	-0.011433336
186	0xbd7b1a85	-0.061304588
187	0xbd998630	-0.07496297
188	0x3d435866	0.047691725
189	0x3d81b0f9	0.06332583
190	0xbc4d9227	-0.012547052
191	0xbd87220e	-0.06598292
192	0xbcf49498	-0.029856011
193	0x3c9316c3	0.01795519
194	0xbdbbc8a5	-0.09169129
195	0xbc824695	-0.015902797
196	0xbcf63860	-0.030056179
197	0x3cfb97b8	0.030711994
198	0x3cf6f219	0.030144738
199	0x3d3e000f	0.046386775
200	0xbda5943e	-0.080849156
201	0x3baa3c26	0.0051951585
202	0x3d6e3624	0.0581571
203	0xbd644f01	-0.055739406
204	0x3cc318c3	0.023815518
205	0xbb43784e	-0.0029826346
206	0x3c349739	0.011022382
207	0xbd20328c	-0.039110705
208	0xbc4b8c48	-0.012423582
209	0x3bcdf7cd	0.0062856437
210	0x3d70e2aa	0.058809914
211	0xbdc48f49	-0.09597642
212	0xbd5efd05	-0.054440517
213	0x3bb6beb7	0.005576934
214	0xbdbe6ab0	-0.09297693
215	0x3c42b0d0	0.011882976
216	0xbd375b96	-0.044765078
217	0xbd2c49d8	-0.04206261
218	0xbdc90a6d	-0.09816442
219	0xbd49e4bf	-0.049290415
220	0x3d1a15f9	0.03761861
221	0xbca62c1d	-0.020284707
222	0x3d8b7571	0.068095095
223	0x3c192197	0.009346387
224	0x3cd8e0ac	0.02647432
225	0x3d854fe4	0.065093786
226	0xbda568f8	-0.08076662
227	0xbd48e8c5	-0.04905011
228	0x3c86d960	0.016461074
229	0xbd99472e	-0.074842796
230	0x3d4e035a	0.050296165
231	0xbd90c402	-0.070686355
232	0x3d40f9a7	0.047113087
233	0xbd269852	-0.040672608
234	0xbce9c453	-0.028535997
235	0xbd8f3cce	-0.069940194
236	0xbd580288	-0.05273679
237	0x3cdf575c	0.027263336
238	0xbd5115dc	-0.051046237
239	0x3cad415f	0.021149335
240	0xbd9d35a1	-0.076762445
241	0x3d36bf71	0.044616167
242	0xbda455ad	-0.08024154
243	0xbd31c89e	-0.043404214
244	0xbda4d8bd	-0.08049152
245	0xbd8fa998	-0.07014769
246	0xbd20c26b	-0.03924791
247	0x3d49b823	0.049247872
248	0x3d6e6d1d	0.058209527
249	0xbc0fabf8	-0.008769028
250	0x3d733ace	0.059382252
251	0xbcfa8cfc	-0.030584805
252	0xbd88b7b1	-0.06675661
253	0xbdb302a7	-0.0874074
254	0x3c90dbdf	0.017682968
255	0xbcf878c6	-0.030331027

bias f4 [32]
0	0xbd6cc2a1	-0.0578028
1	0x3d610be4	0.05494298
2	0xbce5cd16	-0.028051894
3	0xbda4a388	-0.080390036
4	0x3c846880	0.01616311
5	0xbc841da1	-0.01612741
6	0x3b999983	0.0046874895
7	0xbc1fbb61	-0.009749264
8	0xbd1a005e	-0.037598006
9	0x3a3b1781	0.0007136986
10	0xbd69b692	-0.05705888
11	0x3d3d558d	0.046224166
12	0x3c713975	0.0147231715
13	0xbda673c3	-0.081275485
14	0xbd8fbdd5	-0.070186295
15	0x3c6b87a6	0.014375603
16	0xbc36e4a2	-0.011162909
17	0xbddc834f	-0.107672326
18	0xbd355abf	-0.044275995
19	0xbc8631b4	-0.016381122
20	0xbc12e91c	-0.00896671
21	0xbdc44d05	-0.09585003
22	0xbaf0e7cd	-0.0018379629
23	0xbd0c4a63	-0.03425063
24	0xbc213035	-0.009838154
25	0xbdbc9b1b	-0.092092715
26	0xbcb26c40	-0.021780133
27	0x3d71868c	0.058966205
28	0xbd9d3ded	-0.07677827
29	0xbb8e08ef	-0.004334561
30	0x3d925dc4	0.071467906
31	0xbbc071c1	-0.0058729355

weight f4 [64, 32, 3, 3]
0	0xbd6342f9	-0.055483792
1	0x3ceb2576	0.028704386
2	0xbd591b5e	-0.053004615
3	0xbd341cf7	-0.043972936
4	0xbd4f0340	-0.05054021
5	0x3b3cfc00	0.0028836727
6	0x3d080495	0.033207495
7	0x3d1e11e1	0.03859127
8	0xbcb38398	-0.021913335
9	0x3cc36616	0.02385239
10	0x3cbe0c7e	0.023199316
11	0xbd63d925	-0.055627007
12	0xbc471630	-0.012151286
13	0xbd0db9a2	-0.03460086
14	0xbc771a90	-0.015082017
15	0x3d558e0d	0.052137423
16	0xbd27846a	-0.040897764
17	0xbc3df9a8	-0.011595167
18	0xbcabe386	-0.020982515
19	0x3d3bf6ab	0.045889538
20	0xbd3f7ede	-0.04675185
21	0xbcefcfe7	-0.02927394
22	0xbcab86fa	-0.020938385
23	0x3d0bd98e	0.034143023
24	0xbc82e3f5	-0.015977839
25	0xbd748003	-0.059692394
26	0xbca8339d	-0.020532424
27	0xbd5a1459	-0.05324206
28	0x3cd5a7c2	0.02608097
29	0x3ccee236	0.02525435
30	0x3d349d4e	0.04409533
31	0x3d337050	0.04380828
32	0xbd0d913f	-0.034562346
33	0xbcba341d	-0.022729928
34	0xbd52a5ae	-0.051427536
35	0x3d5ff2bb	0.054674845
36	0xbd5d6731	-0.05405349
37	0x3d4e21ef	0.05032533
38	0x3ce2bb86	0.027677309
39	0x3d163d32	0.036679454
40	0xbcb88670	-0.022525042
41	0x3c83f52e	0.016108122
42	0xbce16fff	-0.027519224
43	0xbca5dc78	-0.02024673
44	0xbcba9e28	-0.022780493
45	0xbd58bc98	-0.052914232
46	0xbcc8821e	-0.024476107
47	0x3cdbd306	0.026834022
48	0x3d3c3503	0.045948993
49	0x3cda00ab	0.026611647
50	0xbd12f661	-0.035879496
51	0xbd454de8	-0.04817
52	0x3cacd999	0.021099852
53	0x3c2e1073	0.010624039
54	0xbcb1e126	-0.021713804
55	0xbd63e5f9	-0.05563924
56	0x3d11821b	0.03552447
57	0xbc2ef1fa	-0.010677809
58	0xbd796b01	-0.060893063
59	0xbd0407f3	-0.032234143
60	0x3c49c678	0.012315385
61	0xbd107700	-0.035269737
62	0xbc21bcb2	-0.009871649
63	0xbc72c86c	-0.014818292
64	0x3cd30f16	0.02576403
65	0x3d70de67	0.05880585
66	0xbb0c15b7	-0.0021375248
67	0x3b95eb2d	0.0045751543
68	0x3c75d7be	0.01500505
69	0xbd0bd732	-0.034140773
70	0x3d104648	0.035223275
71	0x3c7d3e8b	0.015456806
72	0xbd63072b	-0.055426758
73	0x3d28940b	0.04115681
74	0x3d38ca6f	0.04511493
75	0xbc1ff1f1	-0.009762273
76	0xbd1975ed	-0.03746598
77	0x3ca5a8ff	0.020222185
78	0xbbb7eab9	-0.005612698
79	0xbd3788af	-0.044808086
80	0xbcfd0631	-0.030886741
81	0x3ce1715e	0.027519878
82	0xbd5d8cbe	-0.0540893
83	0x3d5f2037	0.05447408
84	0x3d563489	0.052296195
85	0xb7fd8284	-3.0220726e-05
86	0xbd7a6436	-0.061130725
87	0x3c9c5b00	0.019086361
88	0x3d44077e	0.047858708
89	0xbd2e5b14	-0.042567328
90	0xbd489574	-0.048970655
91	0x3d04dc2d	0.03243654
92	0xbd4d02aa	-0.05005137
93	0x3be2895b	0.0069133467
94	0xbb3ea7b2	-0.0029091653
95	0x3b0125a6	0.0019706278
96	0x3cceb67e	0.025233503
97	0x3d34796e	0.044061117
98	0x3c4fff5a	0.012695158
99	0x3d14e1d1	0.036348168
100	0xbcfd63ee	-0.03093144
101	0xbb2f8a10	-0.0026785173
102	0x3d1366cd	0.03598671
103	0xbd6b5f8b	-0.057464164
104	0xbd6a5e35	-0.05721875
105	0xbd2299ca	-0.039697446
106	0x3cd28b3a	0.025701154
107	0xbd3e1e3b	-0.04641555
108	0x3cc5291a	0.02406745
109	0xbce2ddbb	-0.02769362
110	0x3cd1cde6	0.025610875
111	0xbd31f5a6	-0.04344716
112	0xbcaf4c04	-0.021398552
113	0xbcd5cd11	-0.02609876
114	0x3d287cf8	0.041134804
115	0x3d42fb17	0.04760274
116	0xbd456dd4	-0.048200443
117	0xbc09b4b8	-0.008404903
118	0x3d2abd2f	0.041684326
119	0x3d01530d	0.031573344
120	0x3d2eef8b	0.042708915
121	0xbcd1b472	-0.025598738
122	0x3d53fdb1	0.05175561
123	0x3c1313be	0.008976875
124	0x3d105d47	0.035245206
125	0x3b3c7bf0	0.0028760396
126	0x3c905d1e	0.017622527
127	0x3d51ac29	0.051189575
128	0xbcc894fa	-0.0244851
129	0x3c832252	0.016007576
130	0x3b909f98	0.0044135563
131	0xbc4dcff8	-0.012561791
132	0xbbb12f60	-0.005407259
133	0xbd4fc1f3	-0.050722074
134	0x3d3f8c5f	0.046764728
135	0x3ca55f9a	0.020187188
136	0xbd2d79c2	-0.042352445
137	0xbc813324	-0.015771456
138	0x3cdb03e6	0.026735257
139	0x3d53ff87	0.05175736
140	0xbd0264ee	-0.031834535
141	0xbd33363d	-0.043752898
142	0xbc37e514	-0.01122405
143	0xbd03509a	-0.03205929
144	0xbccd158c	-0.025034688
145	0x3ccb7e32	0.024840448
146	0xbd0b5ef7	-0.034026112
147	0xbc4431eb	-0.011974792
148	0xbd3e82b5	-0.04651137
149	0xbce62541	-0.028093936
150	0xbbd55f96	-0.006511639
151	0x3c915c26	0.017744135
152	0xbd5a8633	-0.05335064
153	0x3be65df8	0.007030245
154	0xbc9b16ea	-0.018931825
155	0xbab85040	-0.0014062002
156	0x3d53ef12	0.051741667
157	0x3c944e66	0.01810379
158	0x3c9083ce	0.017640974
159	0xbca376af	-0.019954054
160	0xbd5d05a0	-0.053960443
161	0x3cc8d71a	0.02451663
162	0x3d69c837	0.057075705
163	0x3d2179eb	0.03942291
164	0xbb888348	-0.0041660406
165	0xbd015359	-0.031573627
166	0xbd78c341	-0.060733084
167	0xbcf8adf3	-0.030356383
168	0xbb4c9ea5	-0.003122249
169	0xbc7d2ca6	-0.01545254
170	0xbcce9bb7	-0.025220735
171	0xbc5080b8	-0.012726001
172	0x3d07b2c1	0.033129457
173	0xbd5d322c	-0.054002926
174	0x3d073b98	0.033015817
175	0xbce2e422	-0.027696673
176	0xbbf4fbef	-0.007476322
177	0x3be55254	0.0069983397
178	0x3d4c317c	0.04985188
179	0x3d5ba55c	0.053624496
180	0xbd337a99	-0.04381809
181	0x3d11e53b	0.035619
182	0x3d1b6afb	0.03794382
183	0x3c4327ea	0.011911372
184	0xbc78cf58	-0.015186153
185	0xbd5f4f90	-0.054519236
186	0x3cbea2fd	0.023271078
187	0x3d1524c6	0.036412023
188	0xbcd2a607	-0.025713934
189	0x3c5e1794	0.013555426
190	0xbd5746ea	-0.052557863
191	0x3ca2002a	0.019775469
192	0xbd58f40d	-0.05296712
193	0xbd0cc358	-0.03436598
194	0x3c954cce	0.0182251
195	0x3ce5fb32	0.02807388
196	0x3c31a274	0.0108419545
197	0xbd5b7099	-0.05357418
198	0x3cbf99be	0.02338874
199	0xbcddeebc	-0.027091376
200	0xbcd08f38	-0.025458917
201	0xbd5cb9fd	-0.05388831
202	0xbd188e45	-0.037245054
203	0xbcb4fcc6	-0.022093188
204	0x3974b3ee	0.00023336682
205	0x3d3eab9e	0.046550386
206	0x3d4f3230	0.050584972
207	0x3be512c8	0.0069907643
208	0xbd31c7fc	-0.04340361
209	0xbd4d0c38	-0.05006048
210	0xbd494a07	-0.049142864
211	0xbd1a0268	-0.03759995
212	0xbd1bfcbe	-0.03808283
213	0xbd6b7d29	-0.05749241
214	0x3b0c90b0	0.0021448545
215	0xbca51e60	-0.020156085
216	0xbbf415c8	-0.0074488856
217	0xbbba0568	-0.005676914
218	0xbce8025d	-0.02832144
219	0xbd3b0502	-0.045659073
220	0xbc98a987	-0.018635524
221	0xbcc5c3a8	-0.024141148
222	0x3bee7d5f	0.007278129
223	0x3c7d217d	0.015449879
224	0xbcc852a9	-0.024453478
225	0x3ba13668	0.004919816
226	0xbb400940	-0.0029302388
227	0x3caa8c76	0.02081893
228	0x3d1a1ea7	0.03762689
229	0x3cab9770	0.020946234
230	0x3ca20fa0	0.019782841
231	0xbd09790b	-0.0335627
232	0x3c81862e	0.015811052
233	0x3d044848	0.032295495
234	0x3bd224c8	0.006413076
235	0x3c7ec42c	0.015549701
236	0xbd1c9ac0	-0.03823352
237	0x3d136202	0.03598214
238	0xbd1f49d3	-0.038888764
239	0x3c564c14	0.013079662
240	0xbc8cf339	-0.017205821
241	0xbd0abe5d	-0.03387295
242	0xbc020e6c	-0.007938009
243	0x3cec5a32	0.028851602
244	0xbce5715f	-0.028008161
245	0xbd5a463f	-0.05328965
246	0xbd7e6f90	-0.062118113
247	0xbd78b070	-0.06071514
248	0x3d49d7d1	0.049278084
249	0xbd63087d	-0.055428017
250	0x3d398ada	0.045298435
251	0x3d018074	0.031616643
252	0xbd09a162	-0.033601172
253	0x3cd586f6	0.026065331
254	0x3c8c96aa	0.017161686
255	0x3d001ae0	0.03127563

bias f4 [64]
0	0xbcb29265	-0.021798322
1	0xbc586ecb	-0.013210009
2	0x399fb02b	0.000304581
3	0x3d4459ae	0.047937088
4	0xbd6ac1d9	-0.057313774
5	0xbc3da274	-0.011574376
6	0x3c5465ab	0.012963693
7	0xbc89b0d4	-0.016807951
8	0x3d854262	0.06506802
9	0xbce36be7	-0.027761413
10	0x3cca4965	0.0246932
11	0x3e024c56	0.12724432
12	0xbdb5b7cd	-0.08872948
13	0xbdcd5401	-0.10025788
14	0x3af5a8c7	0.0018742316
15	0xbd65f79f	-0.056144353
16	0x3d357d92	0.044309206
17	0xbd412155	-0.04715093
18	0x3ca14953	0.019688284
19	0xbc8090a3	-0.015693968
20	0x3d291d57	0.041287746
21	0x3db8cd5d	0.09023545
22	0xbd0c3cb7	-0.03423759
23	0x3c3a4fc7	0.011371559
24	0xbd3e2b02	-0.046427734
25	0xbcfd87fb	-0.03094863
26	0xbca7fc2a	-0.020505983
27	0x3db49736	0.08817904
28	0x3da4066a	0.08009036
29	0xbd2de0a0	-0.042450547
30	0x3d8f2549	0.069895335
31	0x3d6ce653	0.05783684
32	0xbc1b84fb	-0.009492154
33	0xbb5b05ca	-0.0033420199
34	0x3cedab20	0.029012263
35	0x3d9f9652	0.07792343
36	0xbc998234	-0.018738844
37	0x3d69d046	0.05708339
38	0x3cbeda8d	0.023297573
39	0xbd5f5748	-0.054526597
40	0xbd2f73c4	-0.042835012
41	0xbd002b65	-0.031291384
42	0xbde6c032	-0.11267127
43	0xbd2d741b	-0.042347055
44	0xbafb135f	-0.0019155553
45	0x3d94ff31	0.072752364
46	0x3c9e024d	0.019288206
47	0xbcb1d728	-0.02170904
48	0x3d088818	0.033332914
49	0x3c87b41f	0.01656538
50	0xbcb38fa8	-0.021919087
51	0x3cfe94f8	0.031076893
52	0xbda5beae	-0.0809301
53	0x3db35201	0.087558754
54	0x3d93bc05	0.07213596
55	0x3cb29af9	0.021802412
56	0xbd78010b	-0.06054787
57	0xbce3ebe7	-0.027822448
58	0x3d99ff28	0.0751937
59	0x3ddcd543	0.10782864
60	0x3d53333c	0.051562533
61	0x3c316943	0.010828319
62	0x3d2a1014	0.04151924
63	0xbcbb5726	-0.022868704

weight f4 [128, 448]
0	0xbc3778cc	-0.011198234
1	0x3bcb91b0	0.0062124357
2	0xbd2699f6	-0.040674172
3	0xbad1c280	-0.00160034
4	0xbcaf5b19	-0.021405743
5	0xbbe9f178	-0.007139381
6	0xba518500	-0.0007992536
7	0x3c47af3a	0.012187773
8	0x3c13f9a3	0.009031686
9	0x3bb09468	0.005388785
10	0x3b25008a	0.0025177323
11	0x3ccb3012	0.024803195
12	0x3c39cbb0	0.011340067
13	0x3c6e89e3	0.014559242
14	0x3c117991	0.008879081
15	0xbd3244d4	-0.04352267
16	0xbca779cf	-0.020443825
17	0x3c15addf	0.009135692
18	0x3b0b5b50	0.0021264143
19	0x3d2cd535	0.042195518
20	0x3d3ea76d	0.04654639
21	0xbce74d0b	-0.02823498
22	0xbd3d3c5e	-0.04620015
23	0x3c9db105	0.019249449
24	0xbac5a77b	-0.001507982
25	0x3b089e5f	0.002084635
26	0xbc5b1916	-0.01337268
27	0xbd1ba544	-0.037999406
28	0xbd5610b8	-0.052262038
29	0x3d1170ef	0.035508092
30	0x3d03c879	0.032173607
31	0x3ccd779b	0.025081446
32	0xbd348c9b	-0.044079404
33	0x3d0ac9f2	0.033883996
34	0xbc3fe43f	-0.011712133
35	0x3d0bb0f7	0.034104314
36	0x3c88b2bf	0.016686795
37	0x3b0676ae	0.0020517516
38	0xbc70d91b	-0.0147001995
39	0xbccb86b7	-0.02484451
40	0xbd47d9d5	-0.048791725
41	0xbd1ab3cb	-0.03776912
42	0xbccdaed8	-0.025107786
43	0x3b781010	0.003785137
44	0x3cffb45e	0.031213935
45	0xbcb37ed1	-0.021911057
46	0x3caf7512	0.021418128
47	0x3ca765ce	0.020434286
48	0xbcd800ef	-0.026367633
49	0xbd55c012	-0.052185126
50	0xbce97dd4	-0.028502382
51	0x3a7c40c0	0.00096226856
52	0x3ca44a37	0.02005492
53	0x3c7d05dc	0.0154432915
54	0xbcfa4804	-0.030551918
55	0xbd1ec6d2	-0.03876383
56	0xbcda7eb3	-0.026671743
57	0xbd25b1a8	-0.04045263
58	0x3c2a13ca	0.010380695
59	0x3c835e7d	0.016036266
60	0xbca30223	-0.01989848
61	0x3bfd87e3	0.007737146
62	0xbd1e9208	-0.038713485
63	0xbcbfb0e3	-0.023399776
64	0x3ab050c0	0.00134518
65	0xbd24d123	-0.04023851
66	0xbbbef2f0	-0.0058273003
67	0x3d0a52ef	0.033770498
68	0xbd056a3a	-0.03257201
69	0xbd30a84b	-0.043129247
70	0xbd1be112	-0.03805644
71	0xbd258860	-0.04041326
72	0xbc4cf467	-0.012509442
73	0xbc817f53	-0.015807783
74	0xbc54c338	-0.012985997
75	0x3c57053a	0.013123805
76	0x3cb95676	0.022624236
77	0xbd3e6db1	-0.04649133
78	0x3ca43398	0.020044133
79	0xbd1d9c2b	-0.03847901
80	0x3cf3a8dc	0.029743604
81	0x3d15ffef	0.03662103
82	0xbcd08eb6	-0.025458675
83	0x3afd4a80	0.0019324571
84	0xbc4cff91	-0.012512104
85	0xbc56d150	-0.013111427
86	0x3c875646	0.01652063
87	0x3d2998a9	0.041405354
88	0xbd0efd74	-0.03490968
89	0x3cb3ad22	0.021933142
90	0xbc808d2a	-0.015692312
91	0xbd12a8e3	-0.035805594
92	0xbd381df2	-0.044950433
93	0x3c16a6e0	0.00919506
94	0x3cc66d22	0.02422196
95	0x3bfee5d0	0.0077788606
96	0xbd38cb96	-0.04511603
97	0xba895540	-0.0010477677
98	0xbaf8e580	-0.0018989295
99	0x3cbbfb6a	0.022947032
100	0xbbd13943	-0.006385
101	0x3bfe1476	0.007753904
102	0xbcb140f3	-0.021637416
103	0xb9043956	-0.0001260986
104	0xbd24f15e	-0.04026925
105	0x3d327147	0.04356506
106	0xbcb2a54d	-0.021807337
107	0xba866520	-0.0010253526
108	0x3bd900d8	0.006622415
109	0x3c9bcbea	0.019018132
110	0x3abae380	0.0014258474
111	0xbc536b3c	-0.012903985
112	0xba8c5017	-0.0010705021
113	0x3b9c28ed	0.004765621
114	0xbcf4fafb	-0.029904833
115	0xbcd79ef1	-0.026320906
116	0x3d1b0545	0.037846822
117	0xbcdae9bb	-0.02672278
118	0xbbed0a9e	-0.0072339317
119	0x3bdafc79	0.006682929
120	0xbc8e10d4	-0.017342009
121	0xbd0faf2a	-0.03507916
122	0xbcd305f7	-0.02575968
123	0xb9869eef	-0.00025676886
124	0xbc6758c4	-0.0141202845
125	0xbc95bb7b	-0.018277874
126	0xbc70fb36	-0.014708331
127	0xbcc2c931	-0.023777576
128	0x3c9fcb83	0.019506222
129	0x3d2d3331	0.042285148
130	0x3c49d860	0.012319654
131	0xbd42cc06	-0.047557853
132	0xbcde93af	-0.02717003
133	0x3cfb50d1	0.030678185
134	0x3c837873	0.016048646
135	0xbd1cb0ac	-0.038254425
136	0xbd524cbe	-0.05134272
137	0xbc21b724	-0.009870324
138	0xbc99b197	-0.01876144
139	0x3cb2647a	0.021776427
140	0x3cb6d436	0.022317987
141	0xbc59b508	-0.01328779
142	0x3d0d1bea	0.03445045
143	0xbd4a8ca7	-0.049450543
144	0x3c088132	0.008331584
145	0xbc38b5ef	-0.011273845
146	0x3c8ca025	0.017166207
147	0xbd2bec04	-0.04197313
148	0xbd13fd0b	-0.036129992
149	0x3baf5e55	0.0053518214
150	0xbd119f04	-0.03555204
151	0x3d24f505	0.04027273
152	0xbcac96d1	-0.021068009
153	0xbc5182f9	-0.012787574
154	0xbd5543d6	-0.052066647
155	0xbd5705dd	-0.052495826
156	0x3c429a22	0.011877568
157	0x3cacf567	0.02111311
158	0x3ba6140a	0.005068307
159	0xbcf0d5f7	-0.029398901
160	0x3c408854	0.011751253
161	0x3cb10b68	0.021611884
162	0xbd169304	-0.0367613
163	0x3bf77040	0.007551223
164	0xbcac569c	-0.021037392
165	0x3d027ae8	0.031855494
166	0xbd17b101	-0.03703404
167	0x3d252102	0.04031468
168	0xbd12b1c4	-0.03581406
169	0xbc8d3fa3	-0.017242258
170	0xbd170cd4	-0.03687747
171	0xbc733dc8	-0.014846273
172	0x3d2a230c	0.04153733
173	0xbcfde33b	-0.030992141
174	0xbc888ea4	-0.016669579
175	0x3c427071	0.011867628
176	0x3c54ac98	0.012980603
177	0x3d04c643	0.03241564
178	0x3be5d66b	0.007014086
179	0x3d2a8417	0.041629877
180	0xbc7b5f8c	-0.015342604
181	0xbbf70d90	-0.0075394586
182	0xbd115b5d	-0.03548752
183	0xbb35b5e0	-0.0027726814
184	0xbcd5d746	-0.026103627
185	0xbc1843d4	-0.009293515
186	0xbce0f6cd	-0.027461434
187	0xbd1f01ae	-0.03881996
188	0x3b703670	0.003665354
189	0x3c6792c2	0.014134111
190	0x3cad36c2	0.021144275
191	0xbcc1dc24	-0.023664542
192	0xbd58fbbc	-0.052974448
193	0xbd169a73	-0.036768388
194	0x3ce6a392	0.028154168
195	0x3c13b1ed	0.009014589
196	0xbd298184	-0.04138328
197	0x3c90a455	0.017656485
198	0xbd2a5230	-0.041582286
199	0xbc270049	-0.010192939
200	0xbce8d99f	-0.028424082
201	0xbd390fd1	-0.0451811
202	0xbd4441e6	-0.04791441
203	0x3ac996c4	0.0015380015
204	0xbd3159b5	-0.043298442
205	0xbc931be1	-0.01795763
206	0x3c568be6	0.013094878
207	0xbd4a35c9	-0.0493677
208	0x3c63d297	0.013905189
209	0xbd3f92a3	-0.046770703
210	0x3cec548e	0.028848913
211	0xbd0edafb	-0.034876805
212	0xbc23568d	-0.009969366
213	0xbd2e89d4	-0.042611912
214	0x3b75010a	0.0037384653
215	0x3d1b73d9	0.037952278
216	0xbd429ac1	-0.047510866
217	0xbc4fc9e0	-0.012682408
218	0xbd030265	-0.031984705
219	0x3c176070	0.009239301
220	0x3d3e5d05	0.04647543
221	0xbc8ec14a	-0.017426152
222	0x3d2e7c75	0.04259916
223	0xbd1fad9d	-0.03898393
224	0x3ce1ce04	0.027564056
225	0x3c6cbf54	0.014449913
226	0x3ceac19a	0.02865677
227	0xbc8d26ce	-0.017230418
228	0xbc907b3d	-0.01763689
229	0xbcc32191	-0.023819717
230	0xbb8be5bc	-0.00426933
231	0x3ca7a6ae	0.020465221
232	0x3c9d3aa6	0.019193005
233	0x3d28a29d	0.041170705
234	0xbb3d8660	-0.0028919205
235	0xbd0c963a	-0.034322955
236	0x3cb1491a	0.021641303
237	0x3d02aa91	0.031900946
238	0xbcaa74b1	-0.020807596
239	0xbc5357f6	-0.0128993895
240	0xbb6b49fe	-0.0035902257
241	0xbcdc4df6	-0.026892643
242	0xbc11450f	-0.0088665625
243	0x3ba990ea	0.005174746
244	0x3b9c6721	0.004773036
245	0x3d1735c1	0.036916498
246	0xbd2f236d	-0.042758394
247	0x3cc41c2d	0.023939217
248	0xbc8765a3	-0.016527956
249	0xbcd2f40e	-0.02575114
250	0xbd1568e5	-0.03647699
251	0x3c91895d	0.017765695
252	0xbd2eaff7	-0.042648282
253	0xbc9f1477	-0.019418938
254	0xbd593107	-0.05302527
255	0xbcc5a573	-0.024126744

bias f4 [128]
0	0x3c0da356	0.008644899
1	0x3c6a20a6	0.014290011
2	0x3bd5bb17	0.006522547
3	0x3c07ce45	0.008288925
4	0xbdd3e3fc	-0.10346219
5	0xbe039543	-0.12849908
6	0x3cb50c26	0.02210052
7	0xbd776784	-0.060401455
8	0xbd1d46d6	-0.038397633
9	0x3a4fb955	0.000792404
10	0x3c405b16	0.011740467
11	0xbc92a60a	-0.01790144
12	0xbcc93e71	-0.024565907
13	0xbd0b34d2	-0.03398592
14	0x3c5208ba	0.012819463
15	0xbd931505	-0.071817435
16	0x3dae0780	0.08497524
17	0xbda10958	-0.0786311
18	0x3d367ffc	0.04455565
19	0x3cd1565e	0.025553878
20	0xbd847833	-0.06468239
21	0xbd383029	-0.044967804
22	0xbd15ceb1	-0.03657407
23	0x3c9cd5b9	0.01914488
24	0xbda3d4ef	-0.07999598
25	0xbd736954	-0.05942662
26	0x3c0db5af	0.008649274
27	0xbd2b6bf6	-0.041851006
28	0xbdf590ff	-0.119905464
29	0x3b793373	0.003802505
30	0xbd2ec02a	-0.04266373
31	0xbcd108f9	-0.025516974
32	0x3c9ded43	0.019278174
33	0xbca7f193	-0.020500934
34	0xbad9f5a1	-0.0016628989
35	0xb9deacf9	-0.00042472014
36	0xbde69c3d	-0.11260269
37	0xbcac2b7e	-0.021016832
38	0x3d66abd9	0.05631623
39	0xbdac614c	-0.084169954
40	0xbcf542ed	-0.02993914
41	0x3cb659b4	0.02225957
42	0xbd41de39	-0.04733107
43	0xbd0b2a20	-0.03397572
44	0x3cce288f	0.025165824
45	0xbc81ccc4	-0.01584471
46	0xbd89c5a9	-0.06727154
47	0xbd49370c	-0.049124762
48	0x3d87a907	0.06624036
49	0xbdca9134	-0.098909765
50	0x3c6f21ab	0.014595429
51	0x3db6fbb4	0.08934727
52	0x3da658ba	0.08122392
53	0x3c168848	0.009187765
54	0xbdb32559	-0.08747358
55	0xbcca7a44	-0.024716504
56	0x3ce5fed0	0.028075606
57	0xbd56d28b	-0.052446883
58	0x3d217f0d	0.039427806
59	0xbd0d2526	-0.034459256
60	0x3b6122e8	0.003435308
61	0xbe010b93	-0.12602071
62	0xbdec7d5c	-0.11547348
63	0xbc563970	-0.013075218
64	0xbd6222fa	-0.055209137
65	0x3d0b7c6f	0.034054216
66	0x3d07c517	0.033146944
67	0x3db10483	0.08643439
68	0xbd5f43d4	-0.054508045
69	0xbd6652f7	-0.056231465
70	0xbda107e3	-0.078628324
71	0x3d08953a	0.03334544
72	0x3cae34a2	0.021265332
73	0xbc9edea2	-0.019393269
74	0xbd1e9a98	-0.03872165
75	0xbd16edf0	-0.03684801
76	0xbd77d72a	-0.06050793
77	0xbc117c06	-0.008879667
78	0xbc87c0a7	-0.016571356
79	0x3dd63cf8	0.104608476
80	0xbd092e7b	-0.033491593
81	0xbd075c13	-0.033046793
82	0xbda8dfb9	-0.08245797
83	0x3c9d8efc	0.01923322
84	0xbdd62cb2	-0.10457744
85	0xbce15cba	-0.027510036
86	0xbd7442dc	-0.059634075
87	0xbd0e0343	-0.03467108
88	0xbc94d00d	-0.018165613
89	0xbd0b1250	-0.03395301
90	0x3d4173b3	0.04722948
91	0xbd086a35	-0.033304412
92	0xbbb34342	-0.0054706642
93	0xbd82acc8	-0.06380612
94	0xbcc48ef1	-0.023993941
95	0x3b3ea2d2	0.0029088748
96	0xbc33eda4	-0.010981951
97	0x3cdca14a	0.026932377
98	0x3c63cd28	0.0139038935
99	0xbd5e4685	-0.05426647
100	0x3cd547a1	0.026035132
101	0xbcbe83ca	-0.023256201
102	0xbc8e1e7e	-0.017348524
103	0x3ccf6035	0.02531443
104	0x3d17d103	0.037064563
105	0xbcc33e9a	-0.023833562
106	0xbc3ba62b	-0.011453192
107	0x3cc41672	0.023936484
108	0xbcf73a6a	-0.030179221
109	0xbe075acb	-0.13218229
110	0xbd137f32	-0.036009975
111	0xbd0c8211	-0.03430373
112	0xbd75438d	-0.059878875
113	0xbc1c5f12	-0.009544151
114	0x3c9a781f	0.018856106
115	0x3d8d8c69	0.06911547
116	0x3dc877b8	0.097884595
117	0x3ab2506f	0.0013604293
118	0x3dd03d01	0.101678856
119	0xbd9a767d	-0.07542131
120	0xbd849829	-0.06474335
121	0xbd6d1cf7	-0.05788895
122	0x3db61a29	0.088917084
123	0xbdec7b1f	-0.11546921
124	0xbdcf01d0	-0.101077676
125	0x3d0b588b	0.034019988
126	0xbd5709a5	-0.052499432
127	0x3ca8d6e4	0.02061028

weight f4 [64, 128]
0	0xbca5cf18	-0.020240352
1	0xbabaee68	-0.0014261724
2	0x3c4b76e0	0.012418479
3	0x3c29b971	0.010359154
4	0xbe95a904	-0.2923051
5	0xbe128c40	-0.14311314
6	0xbe347491	-0.17622592
7	0xbe3a0ebb	-0.18169682
8	0x3c577403	0.013150218
9	0xbb03dc0e	-0.0020120176
10	0xbd5877b6	-0.05284854
11	0xbd8a037e	-0.06738947
12	0xbddc0446	-0.107430026
13	0xbd49df43	-0.049285185
14	0x3d2fba5f	0.042902347
15	0xbbb0f3d2	-0.0054001594
16	0xbd225378	-0.039630383
17	0xbcfd471a	-0.030917693
18	0x3da2880b	0.079361044
19	0xbe0072bd	-0.12543769
20	0xbd820336	-0.06348269
21	0xbdc2f6bd	-0.09519718
22	0xbc0153e9	-0.007893541
23	0x3e0102e7	0.12598763
24	0xbcf0adb9	-0.029379712
25	0x3ca181f0	0.01971528
26	0x3e120b8c	0.14262217
27	0xbc234888	-0.009966023
28	0xbe6b3b3c	-0.22971815
29	0x3dc4358f	0.09580528
30	0x3d9608ee	0.07325922
31	0x3e537438	0.20649803
32	0x3dcc72df	0.099828474
33	0xbc032923	-0.008005413
34	0xbe5042f8	-0.20338047
35	0x3e08a39e	0.13343665
36	0xbd559b63	-0.05215014
37	0x3d95b294	0.07309452
38	0xbcfafefc	-0.030639164
39	0xbe3059b8	-0.17221725
40	0x3c84a1f8	0.016190514
41	0xbe5fe1c7	-0.21863471
42	0xbcbc01e8	-0.022950128
43	0xbe99a849	-0.30011204
44	0x3c70878f	0.014680757
45	0xbd6c7beb	-0.057735365
46	0xbdaf1ad8	-0.08550042
47	0xbd869574	-0.06571475
48	0x3c131163	0.008976313
49	0xbe3d45b6	-0.18483624
50	0xbddd270e	-0.10798465
51	0xbccd2259	-0.025040792
52	0xbdb26de9	-0.0871237
53	0xbdd0c9e2	-0.10194756
54	0xbd003734	-0.031302646
55	0xbc5a79d0	-0.013334706
56	0xbd2ca7ad	-0.042152096
57	0xbd86de01	-0.06585313
58	0x3d3db9d5	0.0463198
59	0xbd70d427	-0.058796074
60	0x3e2b3b10	0.1672175
61	0xbe80b595	-0.25138536
62	0x3b2e8cf2	0.0026634303
63	0xbd5f1d6e	-0.054471426
64	0xbddde4f5	-0.10834686
65	0xbdf4fbc5	-0.11962084
66	0x3c3f795c	0.011686649
67	0x3d28567d	0.041098107
68	0xbd6b9340	-0.057513475
69	0xbd91bb0c	-0.071157545
70	0x3d3d7499	0.046253774
71	0xbe2d9b3d	-0.1695375
72	0x3e67170e	0.22567388
73	0x3e36fc38	0.17869651
74	0xbc8d73e8	-0.017267182
75	0xbbaef1e0	-0.0053388923
76	0xbe00bf7d	-0.12573047
77	0xbba06671	-0.0048950245
78	0xbe332031	-0.17492749
79	0xbc369d63	-0.011145922
80	0x3ceefe87	0.029174102
81	0xbe2ec13c	-0.170659
82	0xba954471	-0.0011388195
83	0x3dc94ebd	0.09829471
84	0xbdb8df0d	-0.090269186
85	0xbd78915b	-0.060685497
86	0xbcb766ab	-0.022387823
87	0x3db4dbfd	0.08831022
88	0xbe02d6a5	-0.12777193
89	0xbc1068e1	-0.008814068
90	0xbbec6b24	-0.0072149206
91	0xbda39ad1	-0.07988513
92	0xbe5e6fd2	-0.21722344
93	0xbdb9f085	-0.090790786
94	0xbd2879c7	-0.04113176
95	0x3d5f9bbd	0.054591883
96	0x3e1c0432	0.15235975
97	0x3ddae283	0.10687735
98	0x3e28487a	0.16433898
99	0xbd3546ae	-0.04425686
100	0xbc9bd998	-0.019024655
101	0x3dce2b28	0.10066825
102	0x3e584b1a	0.21122399
103	0x3d79cfcc	0.060989186
104	0x3dac383a	0.08409162
105	0x3a7fbefe	0.0009755938
106	0xbe24d5fd	-0.16097255
107	0xbdaef84d	-0.08543453
108	0x3d3f786d	0.046745706
109	0xbe46f732	-0.19430235
110	0xbc243355	-0.010022004
111	0xbd9ca3f5	-0.0764846
112	0x3d5e3e5a	0.05425868
113	0xbe503e98	-0.20336378
114	0x3d7eb7ed	0.062187124
115	0xbcdb340d	-0.026758218
116	0x3d319131	0.043351356
117	0x3d4b9e59	0.04971156
118	0x3d8faef8	0.070157945
119	0xbde5b77b	-0.11216637
120	0xbe185b54	-0.14878589
121	0xbe372141	-0.17883779
122	0xbbde5237	-0.006784703
123	0xbe1b4537	-0.15163122
124	0xbdd0d6aa	-0.10197194
125	0x3d7f0ede	0.062270038
126	0xbe2b7dee	-0.16747257
127	0x3dc14710	0.09437382
128	0x3c01bb78	0.007918231
129	0x3d5992aa	0.053118385
130	0x3d40cab1	0.0470683
131	0xbcf2cd02	-0.029638771
132	0xbcd230e6	-0.025658082
133	0x3dd61237	0.10452693
134	0xbd6021ec	-0.05471985
135	0x3d8f1606	0.069866225
136	0x3d95aa90	0.07307923
137	0x3d8d6421	0.06903864
138	0xbd27f9bb	-0.041009646
139	0xbd9a01bb	-0.07519861
140	0xbd463b73	-0.04839654
141	0x3d9b889a	0.07594414
142	0x3d03c2f1	0.032168332
143	0x3d9f6e29	0.07784683
144	0xbe11cee0	-0.14239073
145	0x3daa64a5	0.08319978
146	0xbe4d0520	-0.20021486
147	0xbd1c5f24	-0.03817667
148	0x3da35180	0.07974529
149	0xbcb3a44c	-0.021928929
150	0x3b80dde7	0.003932703
151	0x3deffb79	0.117178865
152	0x3d919047	0.07107597
153	0xbbcf253b	-0.006321577
154	0x3dd45377	0.10367482
155	0x3d26a152	0.04068119
156	0x3e3f62e2	0.18690065
157	0x3d4e8a64	0.05042495
158	0x3ce9da07	0.028546346
159	0xbd5f01ea	-0.054445185
160	0xbe5ea7db	-0.2174372
161	0xbe14c0fd	-0.14526744
162	0x3d53dfd5	0.051727135
163	0x3dcca04f	0.09991514
164	0x3d17b9d1	0.037042443
165	0xbda881e5	-0.082279004
166	0xbe50b10c	-0.20380038
167	0x3e13197d	0.14365192
168	0x3d464244	0.04840304
169	0x3d7abb90	0.06121403
170	0x3d4fed42	0.050763376
171	0x3e0abb61	0.13548042
172	0xba3668a4	-0.00069583417
173	0xbdabeda3	-0.08394935
174	0x3e7a944b	0.24470632
175	0xbd398ea6	-0.045302056
176	0xbe57ba37	-0.21067129
177	0x3e8196fc	0.25310504
178	0xbda553df	-0.08072638
179	0xbe496b4c	-0.19669837
180	0xbdf729a7	-0.120684914
181	0x3c398e46	0.011325425
182	0xbd85e2d9	-0.065374084
183	0x3d7de356	0.061984383
184	0x3c026138	0.007957749
185	0x3e374b1b	0.17899744
186	0x3d79972e	0.06093519
187	0x3c74306c	0.014904123
188	0x3d814935	0.06312791
189	0x3dbbe0f9	0.091737695
190	0x3d4cad6a	0.049970068
191	0x3c316128	0.0108263865
192	0x3e134f4a	0.14385715
193	0x3cfdb8ab	0.030971846
194	0x3d547941	0.05187345
195	0xbe2d0d00	-0.1689949
196	0x3d9e125a	0.07718344
197	0x3e2b3291	0.16718508
198	0x3e5ad44d	0.21370049
199	0xbcd10024	-0.025512762
200	0xbde0bb75	-0.109732546
201	0xbe0ae308	-0.13563168
202	0xbda1822b	-0.07886156
203	0xbe84d6ae	-0.25945038
204	0x3e58554d	0.2112629
205	0x3c344a68	0.011004068
206	0x3d9b3e75	0.07580272
207	0xbe45e0c1	-0.19324018
208	0x3d8efebc	0.069821805
209	0x3d87f379	0.066382356
210	0x3e172169	0.14758839
211	0xbbe3333c	-0.006933598
212	0x3e129a3a	0.14316645
213	0xbda70912	-0.08156027
214	0x3da6445e	0.08118509
215	0x3da20b34	0.07912293
216	0x3d764f23	0.060134064
217	0x3cff04ae	0.031130161
218	0x3c6dd868	0.014516927
219	0x3cca1c49	0.02467169
220	0x3da5bb65	0.08092383
221	0x3d51e254	0.051241234
222	0x3d2c289e	0.042030923
223	0xbc8175fc	-0.01580333
224	0x3e0be659	0.1366209
225	0x3d67d963	0.0566038
226	0xbce2fc36	-0.027708154
227	0x3c80e182	0.01573253
228	0xbd43f065	-0.04783668
229	0xbe15097a	-0.14554396
230	0x3bb85592	0.005625435
231	0xbe552cf9	-0.20817937
232	0x3da032b9	0.078221746
233	0xbd4272a6	-0.04747262
234	0x3d02e1e6	0.031953715
235	0x3dc00482	0.0937586
236	0x3d3649ae	0.04450386
237	0x3e60812c	0.21924275
238	0x3d1c0b72	0.038096853
239	0x3c88a87d	0.016681904
240	0x3db86f17	0.09005564
241	0x3d586671	0.05283207
242	0xbc75ebd7	-0.015009842
243	0xbe238dbf	-0.1597204
244	0xbe0d28e0	-0.13785124
245	0xbd0006b5	-0.031256396
246	0xbe23faa6	-0.16013584
247	0x3bd9efdb	0.0066509075
248	0xbca44f2b	-0.020057281
249	0x3dd5ef92	0.10446085
250	0xbe25213e	-0.16125962
251	0x3d698139	0.057008002
252	0x3d0b5c1e	0.034023397
253	0xbdb797ef	-0.08964526
254	0x3d03b4fc	0.032155022
255	0xbd9e1661	-0.07719112

bias f4 [64]
0	0x3e702e79	0.23455228
1	0x3ceb129e	0.0286954
2	0x3d92fad9	0.07176752
3	0x3dafdc6c	0.08586964
4	0x3ce0075d	0.027347261
5	0x3e66bc7c	0.22532839
6	0xbd8fb3d2	-0.0701672
7	0x3e815560	0.25260448
8	0x3e356628	0.17714751
9	0x3e52b26b	0.20575874
10	0x3e041662	0.12899163
11	0x3e0cacf6	0.13737854
12	0x3e68f940	0.22751331
13	0x3dab27bd	0.08357189
14	0x3e754cb6	0.23955044
15	0x3df9c570	0.12195861
16	0x3da9cb25	0.082907
17	0x3e3c3e19	0.18383063
18	0x3d709086	0.05873158
19	0xbd8e3610	-0.06943905
20	0x3e6456ef	0.22298788
21	0x3c2a265c	0.010385122
22	0x3dfda753	0.1238543
23	0x3e32b3b0	0.17451358
24	0x3e3ac336	0.1823853
25	0x3e377cf2	0.17918757
26	0x3cd7ecd9	0.026358055
27	0x3e2f9aa4	0.17148834
28	0x3dfabc81	0.122429855
29	0x3e3a1aff	0.1817436
30	0x3e141786	0.14462098
31	0x3e619361	0.22028877
32	0x3db7efc4	0.089812785
33	0x3cf7f248	0.030266896
34	0x3e8151a3	0.25257596
35	0x3e375d3d	0.17906661
36	0x3d320891	0.0434652
37	0x3df61b90	0.12016976
38	0x3d9d74d3	0.07688298
39	0xbe89a06f	-0.26880214
40	0x3d2a5552	0.041585274
41	0x3e7d60be	0.24743935
42	0x3e0cc8cd	0.13748474
43	0x3e0ec679	0.13942899
44	0x3d206662	0.03916014
45	0x3cf6824f	0.030091433
46	0x3da4a1ae	0.080386505
47	0xbca20cf9	-0.019781576
48	0xbe316370	-0.17323089
49	0x3e892e65	0.2679321
50	0x3e3deb67	0.1854683
51	0x3d8095bd	0.0627856
52	0x3dc42771	0.09577835
53	0x3e285c5e	0.16441485
54	0x3e3a2477	0.18177973
55	0x3e5eb139	0.21747293
56	0x3d9e1204	0.0771828
57	0x3d5ca710	0.05387026
58	0xbd4716dc	-0.048605785
59	0x3d174e5a	0.036939956
60	0x3e85ed57	0.26157638
61	0x3e48fd35	0.19627841
62	0x3e4f6fe5	0.20257528
63	0x3e1480ac	0.1450221

weight f4 [4, 64]
0	0xbe49f2a2	-0.19721463
1	0xbeb4dbba	-0.35323888
2	0xbe89c07c	-0.26904666
3	0x3e91c23b	0.284685
4	0xbe1b72f3	-0.15180568
5	0x3e9f1ae3	0.310752
6	0xbeb45915	-0.35224214
7	0xbe0a736e	-0.13520595
8	0x3ee14209	0.43995693
9	0x3e67e51b	0.2264599
10	0xbc9bbc70	-0.019010752
11	0xbe34a483	-0.17640881
12	0xbe13e91d	-0.14444394
13	0xbe680424	-0.2265783
14	0xbb31b307	-0.0027114765
15	0x3e91f05f	0.285037
16	0xbea2ad3f	-0.317728
17	0xbe14622c	-0.14490575
18	0xbe841c04	-0.25802624
19	0xbdc48eaa	-0.095975235
20	0x3ebcc270	0.36867094
21	0xbe831e00	-0.25608826
22	0xbe9c28ff	-0.30500028
23	0xbe2bb66c	-0.16768807
24	0xbe3f13ed	-0.18659945
25	0x3e639a54	0.2222684
26	0x3dc8530b	0.09781464
27	0xbe256ae2	-0.16154054
28	0x3e363cf3	0.17796688
29	0xbbfaf509	-0.007658605
30	0xbe3d2a2f	-0.18473123
31	0xbe2f6d3e	-0.17131516
32	0xbe8323f0	-0.25613356
33	0xbe869780	-0.2628746
34	0xbd8c9fa3	-0.06866386
35	0xbe1b40ca	-0.15161434
36	0xbe979888	-0.2960856
37	0x3efd1472	0.4942966
38	0xbe8c7ec4	-0.27440464
39	0xbe20ff77	-0.15722452
40	0xbe890461	-0.26761153
41	0xbce9c6c2	-0.028537158
42	0x3e1a2501	0.15053178
43	0xbe8f3d8e	-0.2797665
44	0xbecc384e	-0.39886707
45	0xbeb055b4	-0.34440386
46	0xbcc2e41c	-0.023790412
47	0xbe688cbb	-0.22709934
48	0xbe92c8c3	-0.28668794
49	0xbc33d772	-0.010976659
50	0xbe19fec8	-0.15038598
51	0x3dd0d927	0.101976685
52	0xbd93f4e5	-0.07224444
53	0xbbab5e6d	-0.0052297623
54	0xbe7e775e	-0.24850222
55	0x3e92e6ea	0.28691798
56	0xbe23dc92	-0.1600211
57	0xbe876e36	-0.26451272
58	0xbe92d8e3	-0.28681096
59	0xbe0996d7	-0.13436447
60	0x3e8fca0b	0.28083834
61	0xbb88b35e	-0.004171773
62	0x3ebfad08	0.374367
63	0x3e9fa71b	0.3118218
64	0x3e5ebd6c	0.21751946
65	0xbe6f756c	-0.23384637
66	0xbe82508d	-0.2545208
67	0xbea2527e	-0.31703562
68	0x3dbbf900	0.09178352
69	0xbe804bf0	-0.25057936
70	0xbe9dfc45	-0.3085653
71	0x3e1a8f55	0.1509374
72	0xbeca3222	-0.39491373
73	0xbe873125	-0.26404682
74	0x3cd48074	0.025940157
75	0x3e1270e5	0.14300878
76	0x3e3112ff	0.17292403
77	0xbe61f0be	-0.22064492
78	0x3c7d09db	0.015444244
79	0xbeb632e1	-0.35585693
80	0xbeb38d20	-0.35068607
81	0x3e1797c0	0.14803982
82	0xbc6546c6	-0.0139939245
83	0xbedc350f	-0.4300923
84	0xbe93a17e	-0.28834146
85	0xbec1699d	-0.3777589
86	0xbe915f06	-0.2839281
87	0x3e38ed2b	0.18059222
88	0x3e1e924e	0.15485498
89	0xbed8a01b	-0.4230965
90	0xbecca6ea	-0.39971095
91	0x3e0aadf1	0.13542916
92	0xbeade4b4	-0.3396355
93	0x3ca5a222	0.020218913
94	0x3e56e0f4	0.2098425
95	0x3e482a80	0.19547462
96	0xbea2d908	-0.31806207
97	0xbf08bf8d	-0.53417283
98	0x3d9ece37	0.07754176
99	0x3e3b1b66	0.1827217
100	0xbe80d280	-0.251606
101	0xbec38bca	-0.38192588
102	0x3dc28e42	0.0949979
103	0xbe5cdf7a	-0.21569625
104	0xbe8d0864	-0.27545464
105	0x3d260cb3	0.040539455
106	0xbec35d22	-0.38156992
107	0xbe2743db	-0.16334479
108	0xbe14bec2	-0.14525893
109	0xbe75f488	-0.24019063
110	0x3ce836c6	0.02834643
111	0xbe9a736e	-0.3016619
112	0xbeb0b6d1	-0.34514478
113	0x3cbeb48f	0.023279456
114	0x3e0a6b70	0.13517547
115	0xbec49a92	-0.38399178
116	0xbe8e7bc8	-0.27828813
117	0x3cc24ee7	0.023719264
118	0x3e40b289	0.18818106
119	0xbe983e5b	-0.29735073
120	0xbeb4c51e	-0.35306638
121	0xbea03491	-0.31290105
122	0xbe736a17	-0.23770939
123	0x3db56871	0.08857811
124	0xbe654792	-0.22390583
125	0x3c74119c	0.0148967765
126	0xbe9ec55f	-0.31009957
127	0xbeb2215e	-0.34791082
128	0xbdbceee2	-0.09225251
129	0x3e008324	0.12550026
130	0x3e87ac33	0.26498565
131	0xbe95970b	-0.292168
132	0xbed752b2	-0.4205528
133	0xbe3e167a	-0.18563262
134	0x3c77e0b4	0.015129257
135	0xbec76ca3	-0.3895007
136	0xbe37e1fe	-0.17957303
137	0xbd7d2384	-0.06180145
138	0xbf064bfe	-0.52459705
139	0x3db742ac	0.089482635
140	0xbea3aaf2	-0.31966358
141	0x3e7ab869	0.2448441
142	0xbeedffa1	-0.46484092
143	0xbe9d443f	-0.3071613
144	0xbcd481bc	-0.025940768
145	0x3b475361	0.0030414688
146	0xbe34d8ad	-0.1766078
147	0xbe256ba1	-0.16154338
148	0xbe65fad7	-0.22458969
149	0xbd26a306	-0.040682815
150	0x3e270d5f	0.16313694
151	0xbd9ed829	-0.07756073
152	0xbeb3da9d	-0.35127726
153	0x3cb39ead	0.021926248
154	0x3d4f873b	0.050666075
155	0x3da17f68	0.07885629
156	0xbe14e00d	-0.14538594
157	0xbee7ab75	-0.45248
158	0xbe9bd752	-0.30437714
159	0xbeb85129	-0.3599942
160	0x3e783c26	0.24241695
161	0xbd9dac72	-0.07698907
162	0xbf05fad4	-0.5233586
163	0xbeb56422	-0.35427958
164	0x3e9fc3b0	0.31203985
165	0xbe8609bb	-0.261793
166	0x3e49ac0f	0.19694541
167	0xbe28b9ac	-0.16477078
168	0x3e9937f0	0.2992549
169	0xbebd3a68	-0.36958623
170	0x3d135833	0.035972785
171	0x3e8d9fb9	0.2766092
172	0x3da2e3dc	0.07953617
173	0x3dd22e5a	0.10262747
174	0xbf053ac5	-0.520428
175	0x3e6f8d19	0.23393668
176	0xbd9d137b	-0.07669731
177	0xbf027f99	-0.5097595
178	0x3d8ae66b	0.0678223
179	0x3d25d524	0.04048647
180	0xbe26e0c1	-0.16296674
181	0xbf08da76	-0.53458345
182	0x3de2148c	0.11039075
183	0xbdaab420	-0.08335137
184	0x3e6092ef	0.2193105
185	0x3dfaac61	0.1223991
186	0x3e9643f8	0.2934873
187	0xbecbff47	-0.398432
188	0xbe6f874e	-0.23391458
189	0xbef72d05	-0.48276535
190	0xbe663241	-0.22480108
191	0xbe2cfae7	-0.16892587
192	0xbf6eeca3	-0.9332983
193	0x3d05c761	0.032660846
194	0xbedccec4	-0.431265
195	0x3e1ec007	0.1550294
196	0x3e4e5c4c	0.20152396
197	0xbf7ac802	-0.9796144
198	0x3e0f8698	0.14016187
199	0xbfae3a0f	-1.3611468
200	0xbe9887d2	-0.29791123
201	0xbf3c7231	-0.7361174
202	0x3ba3700d	0.0049877227
203	0xbefce8a2	-0.49396235
204	0xbf90b19e	-1.1304204
205	0xbf09150d	-0.53547746
206	0xbf84aa1f	-1.0364417
207	0x3e419553	0.18904619
208	0x3e02e24f	0.12781642
209	0xbf8be0f0	-1.092802
210	0x3e4b9680	0.1988163
211	0x3e71da5e	0.23618457
212	0xbeb02a8e	-0.34407467
213	0x3e257582	0.16158107
214	0x3b3bbe4a	0.0028647357
215	0xbf978f7e	-1.1840665
216	0x3e6dc612	0.23220089
217	0xbf3a613b	-0.7280461
218	0xbe6f78a7	-0.23385869
219	0xbf78ae60	-0.97141075
220	0x3e280e2f	0.1641166
221	0xbf7281bb	-0.94729203
222	0xbf4c47ea	-0.7979723
223	0xbf8be52e	-1.0929315
224	0xbe8ce3be	-0.27517503
225	0x3e52da96	0.20591196
226	0xbf9710e3	-1.1802028
227	0xbf87ee92	-1.0619681
228	0xbf1c8f67	-0.61156315
229	0xbec0e9ff	-0.37678525
230	0xbec2e1d1	-0.3806291
231	0x3e6f7e5d	0.23388048
232	0xbefbd440	-0.4918537
233	0xbf8ce6b7	-1.1007909
234	0xbf1419d7	-0.5785193
235	0xbee98d18	-0.45615458
236	0x3ddb93fd	0.10721586
237	0x3db0a2b8	0.08624786
238	0x3ba6edff	0.0050942893
239	0xbdff155f	-0.12455248
240	0x3e34bf4b	0.17651097
241	0xbf50d819	-0.8157974
242	0xbf9495a6	-1.1608169
243	0xbef52e6b	-0.47886977
244	0x3e5ba031	0.21447827
245	0xbf23a606	-0.63925207
246	0xbf006cc0	-0.5016594
247	0xbf841a0c	-1.0320449
248	0xbe8b2e4e	-0.27183765
249	0x3c62004f	0.013794019
250	0xbeed7a74	-0.46382487
251	0x3e3442d2	0.17603615
252	0xbf819332	-1.0123045
253	0xbf7b7c10	-0.9823618
254	0xbf172857	-0.5904593
255	0xbde1c635	-0.11024133

bias f4 [4]
0	0xbea250bb	-0.31702217
1	0x3ea81203	0.32826242
2	0xbe93a4e3	-0.28836736
3	0xbf57caae	-0.8429364
